trained_policy/dynamic_radii_June_23.pth (torch, 286504 bytes, 8 tensors)

fc_state.weight f4 [128, 28]
00000000: 219c 273f 28e9 a7bd df68 a63e 358c 223e
00000010: a21d 833e d929 ee3d 8695 16bf c94c a53e
00000020: d61d 993e b243 aebd e1db aebe fcaa aa3e
00000030: 36db efbd a71f 753c e327 123d 3438 823e
00000040: a469 02bc 856f ba3e 17a2 e8be bffa 0fbd
00000050: 2ae2 3abf ebe9 0c3f 549b 80bd 3173 51be
00000060: f98a 14be 69cc 4abf 5619 a03e 58cb 70bd
00000070: 44f1 b03e 92c3 dd3e 6f97 a53f bff4 10be
00000080: ec11 19be d109 1d3f 6a13 d93e 3572 9abe
00000090: 372f b43e a8d8 5a3e 6c04 a6be 6ba2 f2be
000000a0: c4ed 58bd c3da de3e 401d 87be 9a20 52be
000000b0: 3652 9f3e e57d 743e 6aff 4dbf d3ea a3bf
000000c0: 3a31 66bf 9fd4 96bf 0fe3 203e ebeb efbd
000000d0: 7e4f 2dbf 0b66 0c3f 8117 ffbe 0b9b 0dc0
000000e0: 0b51 1abf 2529 86be afb7 ffbe 83c4 a2be
000000f0: 8bef f53d 74ef a7bd 67e9 703d ae73 aabe
00000100: 729b 933e 8773 d23d b3c5 ee3d 109f c63e
00000110: 065f 44be d2e1 a8bc e42e 35bd caef 6dbe
00000120: eb23 d8b9 4fd5 a0be 5866 d33e f32f 263d
00000130: db35 c23e 0666 50be de8f 4dbe 6626 2c3f
00000140: 1421 4e3e d6a2 803e dc88 a63c c318 ae3f
00000150: 27bb 9b3d 1541 863e c379 97bf 7c07 cdbd
00000160: 6074 d83d b30c 1bbe 6ee8 1cbf 3486 e43d
00000170: 1278 3ebf 6ab1 b13e 1e9a 023f 3747 0a3f
00000180: 3a84 3c3e beb4 eabe 505a 8f3f 43f9 0c3f
00000190: 6007 e2bc af5d 8e3f 355f 8a3e 20cb a8be
000001a0: abd1 9fbe 4778 e93c 57d8 143f c293 6abf
000001b0: a9a9 bc3e 04ab 3bbd e924 50bf 2e31 4fc0
000001c0: f92a 1bbe dbbf a83e acd1 4cbf 970b 96be
000001d0: 8cd0 93bd 854b 4f3f 8084 f93e ef6d e43d
000001e0: 69f2 c93e 231c 00be 4f74 8ebe 5756 b3be
000001f0: c101 283d a2c4 c7bd 036b edbe 5c13 5dbb
00000200: b8d5 67bd c6e0 a6be 9e37 2dbe f8ca d13d
00000210: 1715 0a3f ddbc 0e3d 34f8 5a3e c609 273e
00000220: c58e 59bf cbb8 563f 06f3 f4be 6be9 83bf
00000230: 1502 c2be f8a4 20be a2e9 92be 005d 523e
00000240: f941 4a3e a675 31be 127a b8be 7017 1bbe
00000250: e6cf 4dbf 632d 1e3f 8341 aa3e 1440 5dbe
00000260: cc1c 263c 31bb a7be 31a5 2a3f aff3 a23e
00000270: 32e4 76be 1a4a 5e3f ea8e c33d 67b0 6f3e
00000280: 446a 403f ab2c 213f b287 71bf d8c8 673f
00000290: 08cc 703e 464e dd3e 5437 633f fafd 69bf
000002a0: 0ab8 843e ee07 ebbe 7349 1f3f 8298 e1ba
000002b0: 29c5 153e f294 24bf 6fde 35be 6fe1 343e
000002c0: e2a1 633e 4c61 18bf bd4c 32be a18e a3be
000002d0: c822 a33d db30 853e 068f d7be 72a5 8dbd
000002e0: 8682 c33d 281a f6be 8228 6bbc 08d5 49be
000002f0: 917a c5bc 1c88 a9be 95e5 613f 3a41 dabf
00000300: 83e5 d3be bad7 473e d65b 043f 1e81 9f3e
00000310: 1262 c73e 0b4d ea3e 758d c23e a0a7 96bb
00000320: 8559 333f e351 26bf 34bd 3fbf fa81 753f
00000330: 219e 81bf 5454 4f3f e310 183f 5f8d a83e
00000340: ab9b 303b 30aa 1ebf 7f7a e63f 4acf 613f
00000350: 9a21 b6be 4a37 d33f aad2 67bf f61c a13e
00000360: fec8 ea3e c7d4 d03d 90ec 0c3f 4980 d3be
00000370: 8787 b53d 088a 963d c7fb e43e a0fc 453f
00000380: 722d 6d3e d4d0 bf3e 38f8 703f 2c26 a03d
00000390: bc38 c7bd b51a 3d3d c1b2 233f a980 543e
000003a0: 08d0 f33e 71d2 1abf 42c5 0cbf 0488 47bf
000003b0: 48e0 6fbd 7bb7 003e 0f80 3ebf 0f88 80be
000003c0: 6db3 ab3d 67f1 81bf 8fc9 fcbe 125f 0abe
000003d0: 4203 033f c36a fb3e 328a 253f a594 17bf
000003e0: ed5a 67bf 99e3 febd b63e 0cc0 485a ebbd
000003f0: b8e1 26be adab 5e3e 5752 383e b9dd 283e
0.6547261 -0.08198768 0.32501885 0.15873797 0.25608546 0.116290756 -0.58821905 0.32285145
0.29905576 -0.085090056 -0.3415213 0.33333576 -0.11711733 0.01496116 0.03568257 0.25433505
-0.007959757 0.36413208 -0.45436165 -0.03515124 -0.7300135 0.5504443 -0.062796265 -0.20454098
-0.14506139 -0.79218155 0.3126933 -0.058787674 0.3455907 0.4331327 1.2936839 -0.14155863
-0.14948243 0.61343104 0.42397624 -0.30165258 0.35192272 0.2137171 -0.3242525 -0.4738954
-0.052961126 0.43526277 -0.26389503 -0.20520249 0.3111741 0.2387615 -0.80467856 -1.2806038
-0.89918864 -1.1783637 0.15711616 -0.1171492 -0.6769942 0.54843205 -0.4982262 -2.212588
-0.6027991 -0.26203266 -0.49944827 -0.31790552 0.1200858 -0.08199969 0.05881634 -0.33291382
0.28829533 0.10275941 0.11658802 0.3879323 -0.19176874 -0.020615492 -0.04423417 -0.23236004
-0.0004122549 -0.31412742 0.4128902 0.04057307 0.37931713 -0.20351419 -0.20074412 0.6724609
0.20129806 0.25124234 0.020328932 1.3601307 0.07604056 0.2622153 -1.1834034 -0.10011193
0.10569072 -0.15141563 -0.6129216 0.1115841 -0.7440196 0.3470567 0.51016414 0.54014915
0.18409815 -0.4584102 1.1199436 0.55067843 -0.027591407 1.112234 0.27025762 -0.32967472
-0.3121465 0.028499736 0.5814261 -0.9163171 0.3684819 -0.04581739 -0.8130632 -3.2373767
-0.15153112 0.32958874 -0.80007434 -0.29305717 -0.072175115 0.8097461 0.48733902 0.11153781
0.39442757 -0.12510733 -0.2782311 -0.3502681 0.041017298 -0.097543016 -0.46370706 -0.0033733463
-0.056600302 -0.32593364 -0.16915748 0.10243791 0.5393843 0.034848083 0.21383744 0.16312322
-0.84983474 0.8387572 -0.47841662 -1.0305609 -0.37892213 -0.1568793 -0.28693873 0.20543289
0.19751729 -0.17330036 -0.36030632 -0.1514566 -0.8039535 0.61788005 0.33253106 -0.21606475
0.010138702 -0.32760003 0.6665831 0.3182654 -0.24110487 0.8683182 0.09548743 0.23407136
0.7516215 0.6295878 -0.9434768 0.9054084 0.23515332 0.4322378 0.887563 -0.9140316
0.2592166 -0.45904487 0.6222145 -0.0017211589 0.14625992 -0.6428977 -0.17760633 0.17664121
0.22229722 -0.59523463 -0.17412086 -0.31944755 0.07965618 0.26013836 -0.42101306 -0.06916322
0.0954638 -0.4806683 -0.0143529195 -0.19710171 -0.024106296 -0.33111656 0.8824094 -1.7051156
-0.4138604 0.19515887 0.5170263 0.31153196 0.3894201 0.45761904 0.37998548 -0.004597619
0.7005847 -0.649687 -0.74898076 0.95901453 -1.0126382 0.8098805 0.5940077 0.32920358
0.0026948254 -0.61978436 1.8006133 0.88206923 -0.3557251 1.6501248 -0.9055582 0.31467408
0.4585647 0.10196834 0.55048466 -0.4130881 0.088637404 0.07350546 0.4472334 0.773386
0.23161867 0.3746401 0.9412875 0.07819781 -0.09727618 0.046168048 0.6394463 0.20752205
0.47619653 -0.6047736 -0.5498849 -0.7794192 -0.0585635 0.12569992 -0.7441415 -0.25103804
0.08383832 -1.0151795 -0.49372527 -0.13512829 0.51176846 0.4910489 0.64663994 -0.5921119
-0.90373117 -0.124457546 -2.1913276 -0.11491829 -0.16297042 0.21745177 0.1800016 0.1649083

fc_state.bias f4 [128]
00000000: 3588 173f 4975 56bf af06 973f c15e 3fbf
00000010: f938 95be 3b6c d0bd 9c9f fdbe cb9c 4dbf
00000020: e256 00bf 099a 8b3f 36f1 bfbf f184 3ebe
00000030: 8374 1fbf 0123 8e3e 5859 a3bf 1d7e c43d
00000040: fb63 e43d 55a3 5f3f 5c40 6a3f d24c ac3d
00000050: c4eb adbe bf79 4dbf a5d6 81be 1846 2abd
00000060: 0d35 32bf b4b0 54bf 8c05 0f3e f65e a1be
00000070: f0bd 1d3e 5fe9 43bd eb81 d43c ebd2 2e3f
00000080: 14d5 bf3e 6f9a 1abf 94b1 8e3f e067 5f3e
00000090: f3e1 f83e 5c9a 493e 2b8f 863e f8f6 0abf
000000a0: 4395 f4be 58c3 303f 88d0 003f 58e8 193f
000000b0: 382a 953e d029 e53e 04a1 0fbe 4916 623f
000000c0: d5cb b8bf eaec 193f be1a 3fbf bccd 25bf
000000d0: cc2a 3b3f b8f2 273f d380 f53d 8278 233f
000000e0: 4686 eabc a85f 3c3d 2552 163f c2a7 4bbf
000000f0: 8baf 97bf d69e fbbe c0c5 4c3e 7df4 0dbe
00000100: 80e5 ef3e 9448 babe 37cc 573e 7639 813e
00000110: 1732 2cbf 5a37 693f d023 24be a4a9 50bf
00000120: 7369 7f3c bbae 07bf 2604 c4be 5280 803f
00000130: 35fa 353f 9d52 e93e d356 253f 10c5 0abf
00000140: 99f3 f6be 8caf babe bb57 103e 8166 1ebf
00000150: 58e0 5d3f 79fa 043f 8d0c 50be 00da a2bd
00000160: da4c 183f b596 7fbe ee49 efbf 5bf6 803e
00000170: bd36 533e 1572 e6be da77 123c 26e8 9c3f
00000180: 2716 8d3f dfdf 8cbe 4983 9ebe c5af 50be
00000190: 350d 8bbd c163 b23e 6b32 933e 5d37 d43e
000001a0: d540 243e 890b dbbd 42b5 5a3f 36a9 0d3f
000001b0: 41db 7f3f af3a 85bf aeb7 473f 7633 97bf
000001c0: 6015 28bd 7539 2bbd 197d 14bf 5c4f c33e
000001d0: 470a 35be 7141 ae3e 0634 973e 5cb1 2cbe
000001e0: 19f4 053f f4ce 503e 47ec 343f 0b68 47bf
000001f0: 09a8 5e3f 143c 183f 6988 633e e6a6 0c3f
0.5919221 -0.8377271 1.1798915 -0.7475396 -0.2914503 -0.10176893 -0.49535835 -0.8031737
-0.5013257 1.0906383 -1.4995487 -0.186054 -0.6228716 0.2776108 -1.276164 0.09594367
0.11151882 0.873586 0.91504455 0.0841309 -0.33968937 -0.80263895 -0.25359073 -0.041570753
-0.696122 -0.8308213 0.1396696 -0.31517762 0.15404487 -0.047829982 0.025940856 0.68290585
0.37467253 -0.60391897 1.1147943 0.21816969 0.48609886 0.1968779 0.26281103 -0.54283094
-0.47770128 0.6904807 0.50318193 0.60120153 0.29133773 0.44758463 -0.14026266 0.88315254
-1.4437205 0.6012713 -0.7465018 -0.6476705 0.7311218 0.65604734 0.11987462 0.63855755
-0.02862848 0.045989662 0.5871909 -0.79552853 -1.1850446 -0.4914462 0.1999731 -0.13862796
0.46854782 -0.36383498 0.21073996 0.25239152 -0.6726393 0.91100085 -0.16029286 -0.8150885
0.015589106 -0.5300099 -0.38284415 1.003916 0.7108491 0.4557084 0.6458561 -0.54206944
-0.48232725 -0.36462057 0.14095967 -0.6187516 0.86670446 0.5194469 -0.20317288 -0.079517365
0.59492266 -0.24959834 -1.8694437 0.25187954 0.2062635 -0.45008913 0.008939708 1.2258346
1.1022385 -0.2751455 -0.30959538 -0.20379551 -0.067896284 0.3484173 0.28749403 0.4144849
0.16040356 -0.106955595 0.8543283 0.5533632 0.9994393 -1.0408534 0.7801465 -1.181258
-0.04103601 -0.041802842 -0.58003384 0.38146484 -0.17679702 0.34034303 0.29531878 -0.16864532
0.5232559 0.20391446 0.7067303 -0.7789313 0.8697515 0.5946667 0.22220005 0.54942167

fc_1.weight f4 [256, 128]
00000000: b16c cd3b cd05 ca3e 3c08 90be 152c 17bf
00000010: 9017 cc3e 5cd5 213f a4d6 0bbf 46a7 5d3e
00000020: 50e8 c3be 3829 dbbe 8a83 8c3d cdbe 78be
00000030: a066 ddbe 5562 ceba 2069 3f3f a9e6 64be
00000040: 4123 00bf ac3d a1bf 235d b1bd 51a3 60bf
00000050: c941 243f 00eb 72bd c62c a5be d414 9e3e
00000060: a250 7abe 2238 883e e343 08bf 3e44 c5bf
00000070: 97a9 8f3d b4a3 8ebf a790 a4be c020 00c0
00000080: c552 213f 6c53 1bbb 64f8 76be f866 fbbe
00000090: 72b9 1e3e db7d 6cbd 2c1d 333f 63db 85be
000000a0: 5e67 9bbe e91b 143f 9a57 63be d9c2 37bf
000000b0: 30ce ba3c 1d55 d0be 534c 85bc 65dd c8be
000000c0: d5e3 363e 963f 07bf 0a4b 1abe 2f2e 25be
000000d0: 3dee 58be 2403 413e df30 bfbe cd00 9abf
000000e0: 459a 933e 09ca 8d3f cfad d7be fd9b a0be
000000f0: 48fd 6c3e f286 583e 2bc9 0fbf 2836 663d
00000100: c16c f7be f504 9dbd ce66 9c3f 2ace 02be
00000110: c7df 95be 96bb 02bf 2abc 11bf 7677 43be
00000120: 9edc 133d 543c 473f da27 cfbe 2a02 0fbf
00000130: cec9 05bf 3823 6cbe 81e0 40be 92df 5f3d
00000140: 4d20 863f ec23 e2be b5f0 62be 5720 f0be
00000150: fd74 cb3e 01d8 85bf 1df1 5b3f 296f 8abd
00000160: 8654 d8bf 937c 99be c995 bc3e fee7 a53e
00000170: 7b34 90bf 5352 823f 3e5a 923e 8eaa fdbe
00000180: ca76 8f3e 779e 263e 8e2b cd3e d092 9ebf
00000190: 7a19 58be 1e80 0b3e e5ef 9dbf 6ee0 a33c
000001a0: 412a 9fbf 12b1 1abf deb8 0e3f c10e 85bd
000001b0: ffb0 bfbe aff2 163d 83e2 053f 43c5 713e
000001c0: 31ee 85be d983 eebe 4c51 a23e 7494 393f
000001d0: 64f8 ecbd f91e 743d dfcd b7bc cef1 92bf
000001e0: f32f 02bf 9895 43bf f11c a1bd 61da 4f3f
000001f0: 6504 9fbe 83e2 5d3e bb31 53bf 0365 c2bd
00000200: 608a 2e3f 9db8 473e ee3f cabf e2d2 0240
00000210: 7198 d2bf 99b6 bfbe bd11 a4be c0fa b93f
00000220: c759 6cbd 2e2e 7bbf 9a88 3f3f 95ac 6bbd
00000230: 5d31 0fbf 2294 ef3e caf8 103f e35c 61bf
00000240: 5afb 8ebe b961 59bf 83af 1bc0 cd40 093e
00000250: b39a 1fbe ed4f 493e 2435 c9bd bc2e 493e
00000260: a6da 08bf fa43 adbe 9539 89bf bd8c 79bf
00000270: 8ae6 60bf 43dc 67bf e83f 7bbe 2b13 a2bf
00000280: 9bf7 cb3d c802 20bf ef60 973e 46e2 4cbf
00000290: e7f9 48bf 8291 833e ea64 e63d 3ac6 95be
000002a0: 8e3d 863d 9311 0d3f b045 1fbf e84e c13d
000002b0: bd6c 52bf 0ae1 82bf 34cd 733f 9723 183d
000002c0: 0699 6b3f 33f7 52be 0416 993f a84b 56bf
000002d0: f1e7 99bf 64d1 0bc0 567e b2bf fecf bcbf
000002e0: bd30 223f 8870 d33e 7617 bdbf 6f37 923f
000002f0: ec03 ad3d 5b91 803f 6fbf 003f 5d46 50bf
00000300: 08fa 5ebe cd91 093f 949c 68bf e2bb 80be
00000310: 9275 243f bfe3 18c0 c8fc 763e 6fd1 b5bd
00000320: bf64 ae3d 97a7 6abf 236f 093e b4c4 03bf
00000330: 3afe 7cbc b493 cebf 517b c1bd 591e 0bbe
00000340: 3baf fb3d 268c 0d3d 939e b03c 186b bcbe
00000350: cb1f d5bf aa8e 16bf 79a3 f3bf aa5c c43e
00000360: 7505 9d3e c793 e1bc 2635 503f bec5 3ebf
00000370: e101 023f f396 71bf 6cfa 98bf d881 42bf
00000380: 827e 59bf 55f1 48be 32b4 b0bd f25d 363f
00000390: d923 423f eb87 a5bd e362 413e 3edf 5bbf
000003a0: 5333 7c3f 2eea 4e3f 7a65 e1bc e429 acbf
000003b0: 2a39 71bf 7d6b 933e 8a83 86bf 9d16 cb3f
000003c0: b931 c2bf 07d1 d03e f741 0e3f e9b9 603e
000003d0: 9d3f bbbf d226 01be a2a3 96bf ce81 96bf
000003e0: cc34 5f3f 679c 95bf 4967 8cbe b4d1 e4be
000003f0: 3339 81bf 970a 5d3d a663 5f3e 6069 cfbf
0.0062690605 0.3945755 -0.28131282 -0.5905164 0.39861727 0.63216186 -0.5462439 0.21645841
-0.38263178 -0.42804885 0.068610266 -0.24291535 -0.4324236 -0.0015745858 0.74769783 -0.22353615
-0.50053793 -1.2596946 -0.086603425 -0.877492 0.6416288 -0.059306145 -0.32260722 0.30875266
-0.24444821 0.26605326 -0.53228587 -1.5411451 0.070147686 -1.1143708 -0.3214161 -2.001999
0.6301692 -0.0023700846 -0.24118191 -0.49101996 0.1550043 -0.057737213 0.6996639 -0.2614394
-0.303523 0.5785509 -0.22201386 -0.7178169 0.022803396 -0.40689936 -0.016271746 -0.3923141
0.17860349 -0.528314 -0.15067688 -0.16130899 -0.2118463 0.18848854 -0.37341973 -1.2031494
0.28828636 1.1077281 -0.42124793 -0.3136901 0.23143494 0.21145228 -0.5616633 0.05620399
-0.4832516 -0.07666961 1.2218874 -0.12773958 -0.2927229 -0.51067483 -0.5692774 -0.1908854
0.03609907 0.7782643 -0.40460092 -0.5586268 -0.52261055 -0.2306031 -0.18835641 0.054656573
1.0478607 -0.4416803 -0.22162135 -0.46899673 0.39737692 -1.0456544 0.85914785 -0.06759483
-1.6900795 -0.29977855 0.36833027 0.32403558 -1.1266016 1.0181373 0.28584474 -0.49544185
0.28020316 0.16271387 0.40072292 -1.2388554 -0.21103469 0.13623092 -1.2338835 0.020004477
-1.243477 -0.6042644 0.55750835 -0.06496955 -0.37439725 0.036852535 0.52298754 0.23610406
-0.26158288 -0.46584967 0.3170265 0.72492146 -0.11570814 0.05959985 -0.022437034 -1.1480043
-0.50854415 -0.76400137 -0.07866848 0.81192595 -0.3105804 0.21668439 -0.8249776 -0.09491923
0.68179893 0.19504018 -1.580076 2.0441213 -1.6452771 -0.37443998 -0.32044783 1.4529648
-0.057702806 -0.9811734 0.7481781 -0.057537634 -0.559347 0.46792704 0.5662962 -0.8803236
-0.2792614 -0.8491474 -2.4325874 0.13403626 -0.15586357 0.19659396 -0.09824589 0.19646734
-0.5345863 -0.33840925 -1.0720698 -0.97480375 -0.87851775 -0.9057047 -0.24536097 -1.26621
0.09959336 -0.62504244 0.29566142 -0.80032766 -0.7850632 0.2569695 0.112497166 -0.29252797
0.065547094 0.5510494 -0.6221571 0.09438878 -0.8219717 -1.0224926 0.9523499 0.037143316
0.9203037 -0.20602112 1.1959844 -0.8370919 -1.2023908 -2.1846552 -1.3944805 -1.4750974
0.6335562 0.41296792 -1.4772785 1.1423167 0.08448014 1.0044359 0.50292104 -0.81357366
-0.21775067 0.537381 -0.9086392 -0.25143343 0.642419 -2.3889005 0.24119866 -0.08877837
0.085153095 -0.9166197 0.13421302 -0.5147202 -0.015441472 -1.6138825 -0.09447349 -0.13585795
0.12289282 0.034557484 0.02155999 -0.36800456 -1.6650327 -0.5881144 -1.9034263 0.38351947
0.30668226 -0.027536286 0.813311 -0.7452048 0.50784117 -0.94370955 -1.1951423 -0.75979376
-0.8495866 -0.19623311 -0.086281195 0.712371 0.7583595 -0.08082565 0.18885379 -0.85887516
0.98515815 0.8082608 -0.027514208 -1.3450284 -0.9422785 0.28792945 -1.0508893 1.5866276
-1.5171424 0.40784475 0.55569404 0.21945919 -1.4628788 -0.12612465 -1.1768687 -1.1758363
0.87189937 -1.1688355 -0.2742255 -0.4469124 -1.0095581 0.053965177 0.21815357 -1.6204033

fc_1.bias f4 [256]
00000000: c491 1dbe dbaa 90bf 6dce 86bd 09f4 d1be
00000010: 19dd 09bf 95b8 94bd cf4c 943e fc86 f0bd
00000020: 20c1 48bd e0d0 4c3e a5bf 853d 520d 713d
00000030: 27be e43d 5908 93be 4468 c83d dff2 bdbe
00000040: 3931 0ebf f286 36bf b317 84bf f14d 90bd
00000050: 9623 823e c17d 45bf 8b03 3fbf 4734 03bf
00000060: be32 24be 6b6d 9d3d 50c1 17bf 9b81 dfbd
00000070: b59f d6be 6e9a 9abd a3d6 34bf 93c3 333e
00000080: 7a65 cfbe 6859 223d 6580 b23d d8e6 1ebf
00000090: cfbe bdbe 6ae4 19bf a2ea 76bf fd5e 86be
000000a0: e27a 47bf 9fcb 91bd f3d4 8cbf 8672 f0bd
000000b0: ade6 3bbf 56b2 34bf 9acb 1dbf f5df afbe
000000c0: 98a1 6ebe 47cc 82be bfa6 b8be d8ba 0bbf
000000d0: 2199 f7bd 0b4d 52bf 347e 6dbf 8514 f2be
000000e0: bd8c 47be 390c 81bf 58f5 2bbf daae 73bf
000000f0: 104f a3be 4146 0abf 0b53 09bf 3039 59bf
00000100: 3103 28bf 4330 40bf 0102 87be e4dc e7be
00000110: 3003 913c 8472 42be 395d 5abd 2205 85bf
00000120: 3715 4dbf 228a 9b3e 0c90 993e f166 b9be
00000130: e3fe 13bf 6483 19be 550c f1be 66e7 b0be
00000140: 31d7 50be 8392 dfbe d4f3 fd3d 3e8b 34bf
00000150: bdb5 16be 7ebd 73bf fbcd 59bd ddc3 8cbe
00000160: c2f2 9d3d 57ef 44be 9217 5dbe 5460 45bf
00000170: a55b 08bf d4eb 8fbf 3565 b6be 9cea e1be
00000180: c41e 4abf d556 d2be 7215 d2be 8fdc 50bf
00000190: 4a57 bfbe 6867 a13c 6abb 92bf 51e9 013f
000001a0: 32f5 f4be da95 99bd 8039 80bf 26c0 5ebe
000001b0: 0ff6 11bf fc42 8fbe 3d99 e9be a7b3 213b
000001c0: e5cf 53bd b988 88bd ff02 4ebe db56 ce3d
000001d0: ef3e 20be 67c6 29be b02e 9fbe aa5d acbd
000001e0: 1ba7 b3bc af3b dabd 0e43 c8bd d27f b6be
000001f0: 9b38 5bbf 9e3a 7abf e983 c6bd 015e 85be
00000200: 6609 7abf 04db 163b b4b6 d6bd ad54 21bf
00000210: c83e 993d 8c37 8bbf cda7 82bf 58dd d4be
00000220: 406b fd3d 810d 4fbf b3c9 5cbf 4566 02bf
00000230: badd d2be 102f 1cbf 41ce 57be 0fe7 3fbd
00000240: ad9b ecbe 4677 84bf 47d2 92bd bd61 0e3e
00000250: 8542 f5be 5c7a 85bc 9d68 8dbc f4fc a9be
00000260: 9849 22bf 3d00 a8be 07b3 05bf f14b cfbc
00000270: fb75 6abe 249e 533e c00c a9be dce5 80be
00000280: a1b7 b3be 57bd 10be 4a68 55bf 4bc9 0e3e
00000290: 0f17 c7be d658 ebbe 5f67 0c3e 540d 88be
000002a0: c2a1 a6be 716c f23e e8fa d53d d38c 12bf
000002b0: 1b99 52bf f08d adbe 9508 e6bd 010b 51bf
000002c0: bc9f 20bf b3ca 08bf 20ea 0cbf 3ac2 39bf
000002d0: 27cd a0be d760 36be 4c91 e43b 9ac6 3f3d
000002e0: ca57 603e 8119 a03d 945c 73bf 2dcd b5be
000002f0: 4865 6dbf f898 46bf c172 45bf de8b 35be
00000300: e2a4 143e b72b 09bf 98fa c93d 5206 f8bc
00000310: 9ddc b9be d85e e5be aaf2 8b3e 365f 053e
00000320: 037a 3ebf 50a6 1cbd 396a 16be 19b2 00bf
00000330: 53d4 f4bd fce4 d73d 6dff a83e e60f c2be
00000340: 2b76 e5bd 4921 15bf fb18 04bf 8ea1 78be
00000350: ef09 2dbf ac4e b2be 2a11 4c3e 22e5 67bc
00000360: 0004 b5be e7d4 10bf 524b 693e 34ec 76be
00000370: df86 e6be d1cc 6dbf b8cd 49bf c7d1 233e
00000380: 5c4e a9be 6959 96be 57ad aabe 34ed 55be
00000390: 3e73 0cbf 9cb8 a2be b762 553d f39e d5bd
000003a0: 2a8f 6dbd a557 01bf e301 5d3d 790e 7dbf
000003b0: 4112 03bf 9318 acbe c51f d5bd ce37 2ebf
000003c0: 662a 2f3a 7b73 f93d 2cc8 0bbf 06be 27bf
000003d0: 4cc1 38bf 77be 97be 3fde 9ebe 20e7 853d
000003e0: 0ac9 8fbf ed96 53bf 3874 94be 511e 03bf
000003f0: 8faa 11bf 5b56 65be 3358 b8be 2ce5 48be
-0.15387636 -1.1302141 -0.06582341 -0.41006497 -0.53852993 -0.07261769 0.2896485 -0.11744496
-0.049012303 0.20001554 0.06530694 0.058850594 0.11169081 -0.28717306 0.09785512 -0.37099358
-0.5554386 -0.7129966 -1.0319732 -0.07046116 0.25417775 -0.7714501 -0.7461478 -0.51251644
-0.16034982 0.076868854 -0.59279346 -0.10913392 -0.41918722 -0.075489864 -0.7064001 0.17555074
-0.40507108 0.039636046 0.087158956 -0.6207099 -0.37059638 -0.6011416 -0.9645177 -0.26244345
-0.7792188 -0.07118916 -1.1002487 -0.117405936 -0.7339886 -0.7058462 -0.61638796 -0.34350553
-0.2330383 -0.25546476 -0.36064717 -0.54581976 -0.12089754 -0.8214881 -0.92770696 -0.4728128
-0.19487281 -1.0081855 -0.6717124 -0.9518868 -0.31896257 -0.5401345 -0.5364234 -0.84852886
-0.6562987 -0.7507364 -0.26368716 -0.45285714 0.017701715 -0.18988997 -0.05331156 -1.0392191
-0.80110496 0.30378824 0.29992712 -0.3621135 -0.578108 -0.14991528 -0.4707972 -0.34551543
-0.20394589 -0.43666467 0.12400022 -0.70524967 -0.14717765 -0.9521102 -0.053174954 -0.27493182
0.07712318 -0.19231926 -0.21591023 -0.7710011 -0.5326484 -1.1243844 -0.3562409 -0.44124305
-0.78953195 -0.41081873 -0.41031986 -0.81586546 -0.37371284 0.019702628 -1.1463444 0.5074664
-0.4784332 -0.07499285 -1.0017548 -0.21752986 -0.5701608 -0.27980793 -0.45624724 0.0024673732
-0.051711936 -0.06666703 -0.2011833 0.1007516 -0.15649007 -0.1657959 -0.31090307 -0.084163025
-0.021930268 -0.10655915 -0.09778415 -0.35644394 -0.8563325 -0.9774569 -0.096931286 -0.26048282
-0.9767059 0.0023018727 -0.104840666 -0.6301983 0.07482678 -1.0876327 -1.0207459 -0.41575122
0.12373972 -0.8087998 -0.8624527 -0.509373 -0.4118479 -0.6100931 -0.21074773 -0.046851214
-0.4621252 -1.0348899 -0.071690135 0.13904472 -0.47902313 -0.016293697 -0.017261798 -0.332008
-0.63393545 -0.32812682 -0.522263 -0.025304766 -0.22896568 0.20665795 -0.3301754 -0.2517537
-0.35101035 -0.14134727 -0.8336226 0.13943975 -0.3888478 -0.45966214 0.13711308 -0.2657267
-0.32545286 0.4734836 0.10448247 -0.5724613 -0.8226487 -0.33897352 -0.11232106 -0.81657416
-0.62743735 -0.53434294 -0.55044746 -0.7256199 -0.3140652 -0.17810379 0.0069753285 0.04682026
0.21908489 0.078173645 -0.9506314 -0.355081 -0.9273267 -0.7757716 -0.77128226 -0.17729136
0.14516023 -0.5358233 0.0986225 -0.030276451 -0.36301127 -0.44798923 0.27333575 0.13024601
-0.74404925 -0.038244545 -0.14688958 -0.50271755 -0.1195456 0.10541722 0.33007374 -0.37902755
-0.112041794 -0.58253914 -0.5160062 -0.24280378 -0.6759328 -0.34825647 0.19928423 -0.014153751
-0.35354614 -0.56574863 0.22782639 -0.24113542 -0.45024773 -0.9289065 -0.78829527 0.15997992
-0.33067596 -0.2936509 -0.33335373 -0.20891267 -0.54863346 -0.3178147 0.052096095 -0.10430708
-0.05799786 -0.5052436 0.053956877 -0.9885021 -0.5119973 -0.336125 -0.1040645 -0.680539
0.0006682038 0.12180229 -0.54602313 -0.6552433 -0.7216995 -0.296375 -0.31028935 0.06538224
-1.1233227 -0.8265217 -0.28994918 -0.51218134 -0.56900877 -0.22396223 -0.3600479 -0.19618672

fc_2.weight f4 [128, 256]
00000000: 3722 cbbd 0391 db3d 62a4 ea3a 3b09 133f
00000010: 521e 223e 8973 133f fe44 6fbe 97f7 0a3f
00000020: 24a4 7a3d 9afe 86be 3abe ee3b babd 46bd
00000030: 81d3 de3b 3e3d 343e b77a 0c3f 3a8b 523e
00000040: fcae 3b3f d152 473f 1905 7e3f d615 7ebe
00000050: 2189 0c3e 58dd 383f be2a 0a3d 4b81 133f
00000060: 55e5 503d 6123 c7be f3d8 2b3f a4a3 593e
00000070: d726 3e3e 187c 443d c181 cd3e e634 89be
00000080: fe57 373f 972e ddbe eae5 653e d703 113c
00000090: 0d1f c5bd c6e8 9cbd f97d ee3e 41dd 0d3f
000000a0: 93a7 323f a5c5 bc3e 152f bf3e 3318 d0be
000000b0: 02b2 d63c 12d2 3e3f 72e3 a73e 8521 c93e
000000c0: 7850 4a3f dca9 9a3e 9e1e 2e3f 84f3 3c3f
000000d0: 377d 45be b97c 643e 3d4d de3e 7ffd 9b3e
000000e0: c22a 223e ef53 f63e 9285 4a3f 978c f83e
000000f0: ef10 32be 7874 653f 4328 7a3f 07c7 433f
00000100: 0b3a 9b3e d56f 033f 6f3c 613e 8300 893e
00000110: f033 18bd 0f2b 48be b44e 833e 8d36 1d3f
00000120: c080 643e 0c7c 073e 5e43 f2be 0968 4e3d
00000130: fc0e 2d3f 30b7 9f3d f328 d13e c229 5b3f
00000140: 3bf9 b93e 81f1 893f bba3 b63e c6db aebd
00000150: 452b 3d3d e571 143f efdb 873d fd30 853d
00000160: 888a c53e 8bd5 303e 94b6 2ebf 5b82 f23e
00000170: 2163 ca3e 5d54 fd3e 7397 aa3e 08ee 2c3f
00000180: 9f2e e33e 99fa e73e 0464 fa3e 6b01 efbe
00000190: e4b7 953e ad2d 9a3e e417 883e 87b1 0abf
000001a0: 7371 9cbe 7bae 1bbe 3961 733f 53b3 253f
000001b0: 894e 0c3f 616a f1bc c18c 2b3f 062f 84be
000001c0: 2da8 c3be 2388 133f f4ee fcbd d2a5 a7be
000001d0: 3c16 d3bd 7e8d 233e 4396 ef3b 4c15 e5bd
000001e0: 1db1 d43e 160a 4d3f dee8 003f 89d3 903e
000001f0: 6809 023e c9ea d83e 986b 9b3d 33d3 95be
00000200: 226c 8c3f 96d2 9e3b 5249 4b3f 1fbb 963e
00000210: d5fd 8abe d9c7 0c3f a6cd a83e 92f8 363f
00000220: c355 53bf 2c9d 233f 5b19 573f f105 e33c
00000230: 8a43 4b3f 3379 0dbd e4c1 173f 37cb c83e
00000240: c7e9 903d b99a 273f dc7d 6b3e c2ef 0c3e
00000250: a125 0d3e 3c9e 4bbf 97a1 8fbd 944a ccbe
00000260: b773 293f 15f4 0cbe d999 343f 74ec 0cbe
00000270: cc04 a0be c362 0bbf 6fcd 583e 051e f73d
00000280: 7420 c43d 35cd 5abe 4b52 403e 1849 683e
00000290: afa2 f73e a90d 853e c99f ccbe 9f7c 7b3f
000002a0: 89e9 1e3a 2967 f6be c2b6 313e 6829 f83d
000002b0: 7d40 363f cd06 df3e e5d1 77bd 8bd7 6d3f
000002c0: 478c ad3e 6c55 1f3e 714b 1d3e 6d87 273f
000002d0: fb4d 6d3e ba62 743e 47dc b93d 4402 9a3d
000002e0: 23a4 04bf 73df 7bbe e702 de3e 3b12 393f
000002f0: 0695 313f b605 053f 89c8 393f df83 813e
00000300: cb13 43bd a882 da3e c9e9 4abd 26f0 873b
00000310: eeab 423f 44fe 803e e180 fa3e ef8f 093e
00000320: e7b5 3c3f 311f b5bd 2896 683f 38e6 03bf
00000330: 29b6 f9be ced4 80be 537c d3be 3910 c73d
00000340: 465d 1e3f b073 603e c347 683e 84a0 3f3e
00000350: 01f5 1cbf 720f 43be 586a c4be 8e7a 2c3c
00000360: 9d96 923e 9b25 033f 0817 1ebb aecd 093e
00000370: 80d7 8e3e 9ff0 2d3f d14f 263f 98e6 c3be
00000380: 749e 9dbd ed99 0fbd 69bb 61be a32f d63e
00000390: 74c9 6d3e a443 2f3e 6e7f 963e 8c13 b6bd
000003a0: 5f52 b6be 430b fd3e 955d adbe 3572 1c3f
000003b0: 5606 713e b387 813e dba2 233d 576b 1f3f
000003c0: 49f8 153d 236a 4cbe 4e43 3b3f cb7c fe3e
000003d0: 602c 5c3e 5f6a 673e 919c 243f bfba a6be
000003e0: 76f2 65be 1e0c da3d c8c3 c63e c08f 483f
000003f0: eff4 eb3e 4454 093f 764f 413f d5e9 323b
-0.09918635 0.10721018 0.0017901773 0.5743596 0.15831879 0.5759817 -0.23366162 0.5428404
0.061191693 -0.2636612 0.0072858604 -0.04852078 0.0068001156 0.17601487 0.5487475 0.20560923
0.7331388 0.7786074 0.9922653 -0.24813017 0.13724186 0.72212744 0.03373217 0.5761916
0.050999958 -0.3889418 0.67127913 0.2125383 0.18569504 0.047969908 0.40138057 -0.2679817
0.7161864 -0.43199608 0.22450987 0.008851013 -0.09625063 -0.076615855 0.46580485 0.5541573
0.6978695 0.3686954 0.37340608 -0.40643463 0.026207928 0.7453929 0.32790715 0.39283386
0.79029036 0.30207717 0.6801547 0.73809075 -0.19286047 0.22313203 0.43418303 0.3046684
0.15836623 0.4811091 0.7911006 0.48544762 -0.17389272 0.8963084 0.97717685 0.76475567
0.3031772 0.5134252 0.2199571 0.26758203 -0.037158906 -0.19547676 0.25645983 0.6141136
0.22314739 0.13230914 -0.47317022 0.050392184 0.6760099 0.07798612 0.40851554 0.8561059
0.3632296 1.0776826 0.3567179 -0.08538012 0.046183843 0.5798629 0.06633746 0.065034844
0.38582253 0.1726896 -0.6824734 0.47365078 0.39528754 0.49478427 0.33318672 0.67550707
0.44371507 0.45308378 0.4890443 -0.4668077 0.2924186 0.30112973 0.26580727 -0.54177135
-0.30555305 -0.15203278 0.95070225 0.6472675 0.54807335 -0.02946967 0.6701165 -0.25817126
-0.38214245 0.57629603 -0.12350264 -0.32743698 -0.10306975 0.15971944 0.0073116138 -0.11185703
0.41541377 0.80093515 0.5035533 0.2828639 0.126989 0.42366627 0.07588881 -0.29262695
1.09705 0.004846881 0.7940875 0.29439637 -0.27146783 0.54992443 0.32969397 0.7147304
-0.82552737 0.639117 0.84023064 0.027712794 0.7939993 -0.034539413 0.5928023 0.3921754
0.070758395 0.65470463 0.2299723 0.13763335 0.13783886 -0.7953832 -0.07013243 -0.3990065
0.6619219 -0.13764985 0.7054725 -0.13762075 -0.3125366 -0.54447573 0.21172117 0.12066273
0.095765024 -0.21367343 0.18781392 0.22684133 0.48366305 0.25986984 -0.39965656 0.9823703
0.0006062021 -0.4812558 0.17354873 0.121172726 0.7119215 0.43559876 -0.060502905 0.9290702
0.33896086 0.1555993 0.1536081 0.6544102 0.23174278 0.23865786 0.09075218 0.075199634
-0.5181295 -0.24596958 0.4336159 0.7229344 0.69368017 0.5196184 0.7257162 0.25295922
-0.047626298 0.42677808 -0.04953936 0.004148501 0.76043594 0.2519399 0.48926452 0.13433813
0.7371506 -0.0884384 0.9085412 -0.5152316 -0.4877179 -0.25162357 -0.4130579 0.09719891
0.61861074 0.21919131 0.22683625 0.18713576 -0.61311346 -0.1904886 -0.38362384 0.010527266
0.28630534 0.51229256 -0.0024122614 0.13457367 0.27898788 0.67945284 0.6496554 -0.38261867
-0.07696238 -0.035058904 -0.22044148 0.4183322 0.2322138 0.17115647 0.29394096 -0.08890447
-0.3560972 0.49422655 -0.3386046 0.61111766 0.23537573 0.25298843 0.039950233 0.6227316
0.036613736 -0.19962363 0.73149574 0.49704584 0.21501303 0.22599171 0.643014 -0.3256435
-0.22455773 0.106468424 0.38821244 0.78344345 0.46085307 0.53644204 0.7551187 0.002730002

fc_2.bias f4 [128]
00000000: cf66 38bf 51d1 fabe c691 febe c93b c7be
00000010: 65a4 47bf 1188 68bf 4312 07bf dfbe 65bf
00000020: 10bf a4be 8de4 8bbe 8a4c 44be 89f4 8bbe
00000030: 6aed c9be bfb5 ebbe b4a0 d9be 8b23 2ebe
00000040: ac64 15bf 247c d5be 73d5 c3be 82a3 e4be
00000050: 801e acbe 7041 d9be 6f0c 48bf 2ef8 ccbe
00000060: 89b7 5dbf 7336 92be 1a45 d3be a036 0ebf
00000070: 0f00 aebe a00c 05bf f415 09bf 04bf 91be
00000080: dc2e c3be 8d3c fdbe 9201 3fbf b54f e1be
00000090: 5e2c d4be 0802 51bf 11fd 33bf 7c55 6dbf
000000a0: d49a 92be 2823 babe b946 efbe 52c6 59bf
000000b0: 07d6 58bf 9cea debe 225c d1be c807 65be
000000c0: 8fb5 c8be b856 28bf c212 0ebf 2548 3fbf
000000d0: 6136 05bf ab3c 51bf e029 82be f4c9 67be
000000e0: 5a7e eabe d19d f3be 1af2 2cbf 77b9 eebe
000000f0: d831 1bbf 9cd7 eabe 224e 5cbf d811 29bf
00000100: afab 24bf 7052 f1be f28d 31bf 3345 44bf
00000110: 8200 69bf ecc6 3cbe 1d4b 0cbf d3ea 2cbf
00000120: a7e3 95be d4d5 1fbf fde0 7cbe 9fcd 17bf
00000130: 762b 9abe ff6b 44bf a3ef f0be 8640 eebe
00000140: 4814 e6be 57d4 4fbe 19f1 d6be 72cb babe
00000150: ffeb b9be fe04 04bf b7ce fcbe 74fa c7be
00000160: b48c fcbe 476f 36bf 640f 44bf ee24 f5be
00000170: 3b66 47bf 468c 17bf 3e5e e7be c1de e5be
00000180: 07f0 f1be 2f5c a4be de51 01bf 813f afbe
00000190: 10c4 36bf 14e3 06bf 4ba9 dbbe 482c a2be
000001a0: 1a5b 03bf b02c 7dbe 2528 23bf ceb1 e1be
000001b0: 4b8b 1cbf db3b 24bf beb9 57be 01bd 0fbf
000001c0: ca9e 0abf 7973 a4be 553f 13bf b23a 3fbf
000001d0: 9566 1bbf a3fa d8be a86e 31bf 9be0 2ebf
000001e0: 5450 64be d9e2 e7be 6628 b7be c6a1 ccbe
000001f0: e245 09bf bcb9 01bf 4a0a 4dbe 3060 12bf
-0.72031873 -0.4898782 -0.4972059 -0.389128 -0.7798522 -0.9083262 -0.5276224 -0.8974437
-0.3217702 -0.27322808 -0.19169822 -0.27335003 -0.39438945 -0.460371 -0.4250542 -0.17005746
-0.5835674 -0.41696274 -0.38248786 -0.44655997 -0.3361702 -0.42432737 -0.7814397 -0.40033096
-0.8660818 -0.28557166 -0.41263658 -0.555521 -0.3398442 -0.5197239 -0.5354912 -0.28466046
-0.38121688 -0.4946026 -0.7461177 -0.44006124 -0.414401 -0.81643724 -0.70308024 -0.92708564
-0.2863375 -0.36354947 -0.46733645 -0.8506824 -0.8470158 -0.43538368 -0.40890604 -0.2236625
-0.39201018 -0.6575732 -0.5549737 -0.7471946 -0.520361 -0.81733197 -0.25422573 -0.22635633
-0.45799524 -0.47581342 -0.6755692 -0.46625873 -0.6062293 -0.45867622 -0.8605672 -0.6604285
-0.6432447 -0.47133207 -0.69357216 -0.7666809 -0.910164 -0.18435258 -0.54802114 -0.67545813
-0.29275247 -0.6243565 -0.24695201 -0.5929813 -0.30111283 -0.7672729 -0.47057828 -0.46533602
-0.44937348 -0.20295845 -0.41980818 -0.3648334 -0.36312863 -0.5157012 -0.4937646 -0.39058268
-0.49326098 -0.71263546 -0.76585984 -0.47879738 -0.77890366 -0.59198415 -0.4518909 -0.4489651
-0.4725344 -0.3210158 -0.50515544 -0.34228137 -0.7139292 -0.52690244 -0.42902598 -0.3167441
-0.51310885 -0.24724078 -0.6373313 -0.44080967 -0.61150044 -0.6415383 -0.21066949 -0.5614777
-0.5414854 -0.3211935 -0.5751851 -0.74698937 -0.607034 -0.4237872 -0.69309473 -0.6831147
-0.22296268 -0.4529026 -0.3577301 -0.39967173 -0.5362226 -0.50674033 -0.20023456 -0.5717802

fc_out.weight f4 [9, 128]
00000000: f5fd 943e 531d b13c 0cf0 623d 4da7 d63c
00000010: 138b 7cbd cb29 36bd 07cf ddbe d907 4e3f
00000020: 5f2c 4dbb abf6 1dbd 3db2 d73d 7a9c 143e
00000030: 3a2e 82bd 885a 45bd 92b4 273d 1e21 a83d
00000040: 674c c3bd 5baa 21bd 56ca 883d 68a1 813c
00000050: 76d6 15bb 4c3e e03d 1f37 603e 75aa cd3c
00000060: c118 6b3d 04bf a33c 1846 dabc de7f ba3d
00000070: 81ce aebd efc7 03be e17f 9f3d 5a00 74bd
00000080: fe7a 8dbd f919 67bc 0b4a 243d 76ea 953d
00000090: c842 ff3d da59 72be e942 37be 1f0e a23d
000000a0: 69c7 0abe 3121 0e3e f38a 03bf 8243 433e
000000b0: cae7 713e e1a1 16bd 6aef 303c 8fa7 623e
000000c0: 2817 13bd d994 c63e 49dc 68be 7d7e b33d
000000d0: 563a 11bd bf6a f03e c647 f13a 2539 42bb
000000e0: c52d c63d da7a b4bb 5f5f 51be ae25 793e
000000f0: b898 293d 194d a1bd 4362 873d ecf1 96bc
00000100: 34a4 943d ee7c 3fbd 2c37 3dbe 194c 233e
00000110: c126 6cbe fe36 f33c 63c4 c13b 3583 0ebe
00000120: 0df1 bf3b c690 8b3b a89f 41ba 4ab7 bebd
00000130: 1ebf 1abd d174 383f 9ec3 d13c a0df a9bb
00000140: 4f74 a7bc e3c8 c03d 84c3 12bd 5ba9 9abe
00000150: c972 a13c 9200 0e3d 0f84 16bd 7569 f93c
00000160: ef18 77bd cba4 7ebe 7975 55bf ffde afbb
00000170: 1fa9 f2be 1253 8e3b 5ce1 b5bd 2461 9e3d
00000180: e39a 1b3e 2223 293d afc0 033e 0c49 893d
00000190: 4ffa b1be 8e9f 813d 85d0 a23c db10 56bd
000001a0: 1d8a e43d db31 dabb 30ac 0e3e 5cc8 97bd
000001b0: 0238 3bbe e85f edbd a7f9 33bd f76a 3c3c
000001c0: 10cf cabd 3def 55be 95d2 5abe 40c9 9e3e
000001d0: 2eca bc3e a0b5 56be 7c7a 47be 375d d9be
000001e0: a705 7e3e 6f33 8f3e 5da0 afbb c4cc c2bd
000001f0: 021a 0d3d e3df 613e 439e 363d eb3f 66bc
00000200: 1bdd a5bd 601e 5d3d b806 fa3b f9b6 a0bd
00000210: 91ca a2bd dac9 3b3e 5662 05be 3676 0e3f
00000220: 3fc0 963c 8b68 bb3d 6e64 2e3e da27 88bc
00000230: 39c1 ff3c 2097 a43d 7594 ebbb d2be cbbd
00000240: 4011 b1be 0e77 5d3c 8a63 e83b 822a 423d
00000250: f52c 9fbc a8cb 4b3d 5835 093e 97a5 0a3e
00000260: b7c3 d03d 3e07 b0bd 361a a43d e8fd d0be
00000270: aa0c d43c 4ee7 863d fc00 5cbc 38fd 8d3c
00000280: 5a0d 96bb d0f0 5abe 934a dd3e be56 10bd
00000290: 4b94 19bd 3a16 0cbf fbd4 e8bd 5a0e f2be
000002a0: 2db1 d7bd 2678 5dbd fa9c b1bd 749c 9fbe
000002b0: fd6e 79be 0748 793d 9be4 9f3d e8e5 583b
000002c0: 2c17 223d d61b 30be 9562 e33d 2833 923e
000002d0: fb51 f8bb 1291 20be c7f8 a23d a6c1 ff3c
000002e0: fc00 303d cb92 0d3e 3cec 65bd eb14 92bd
000002f0: 2814 1c3d 1c18 e7bd ed38 8b3d 00e4 22bf
00000300: 50f6 a03d de32 863d 6c3e 0ebe ec36 9d3e
00000310: fc1b 24bd b1f7 e4bb 8797 723d 3160 e1bc
00000320: fdae 26be 29cc fbbc 8ad7 913d 8ca9 cdba
00000330: bc8f bf3d 5416 093f 1154 08be 6575 3e3d
00000340: d19e 8ebd 22d4 0bbe fd56 a0bd c6a5 efbc
00000350: 4f00 e3bd 4c55 2e3d 3b55 993d 4df4 c4bc
00000360: e65a 92bd 7273 b5bd 0a54 70be 3b9a eb3c
00000370: c562 fc3d bbf4 7a3c 584e 243d 6ae2 cfbd
00000380: dd8f 8d3e e4fc 843b d237 163d 0b33 293d
00000390: b1ea ae3e 608b 573e dd04 e6bc 50c4 26be
000003a0: a400 01bd 92c2 c83d aba8 363e de6a 903d
000003b0: c73c 173f 3373 a7bd 9e26 d83c 170d 17bd
000003c0: d1c3 b8bc d0bd 01bb bd66 4ebd 2aa7 ebbc
000003d0: df43 0c3d 0136 5bbe 329b a33e 4f45 bc3e
000003e0: bddd 0fbe 0650 f23d 0f7b 89bd 7d01 92bd
000003f0: cab5 ce3d 42b2 96be 8838 93bb b113 033d
0.29100004 0.021620428 0.055404708 0.026202822 -0.06165607 -0.04447345 -0.43322012 0.80480725
-0.0031306965 -0.03856532 0.10532043 0.14512816 -0.06356473 -0.04818204 0.04094369 0.082094416
-0.09536057 -0.039469104 0.066792175 0.015824035 -0.0022863424 0.10949382 0.21896027 0.025105694
0.057396654 0.019988544 -0.026644751 0.0910642 -0.08535481 -0.12869237 0.07788063 -0.059570648
-0.069082245 -0.014105313 0.040109675 0.073201105 0.124639094 -0.23667088 -0.17896618 0.0791285
-0.13552631 0.13879849 -0.51383895 0.19068721 0.23623577 -0.036775474 0.010799268 0.22134231
-0.035910755 0.38785437 -0.22740282 0.0876436 -0.035456024 0.4695644 0.0018408231 -0.0029636112
0.096766986 -0.005507809 -0.20446537 0.2433078 0.04140541 -0.07876033 0.06610539 -0.018425904
0.07257882 -0.04675 -0.18478078 0.15946998 -0.23061658 0.029689308 0.0059133037 -0.13917239
0.005857593 0.0042592017 -0.00073861564 -0.09312303 -0.03777992 0.7205325 0.025605973 -0.005184129
-0.020441202 0.09413316 -0.03583099 -0.30207333 0.019708054 0.034668513 -0.036747035 0.030445794
-0.060326513 -0.24867551 -0.83382374 -0.0053671594 -0.47394654 0.004343399 -0.088808745 0.07733372
0.15195803 0.04129327 0.12866472 0.06703386 -0.34761283 0.06329261 0.01987482 -0.05226217
0.111591555 -0.0066587753 0.13932872 -0.074112624 -0.18283084 -0.11590558 -0.04393926 0.011500112
-0.09902775 -0.20892043 -0.21369393 0.31012917 0.36873 -0.20967722 -0.19480318 -0.4245393
0.24806844 0.27968928 -0.005359693 -0.09511712 0.03444863 0.22058062 0.044584524 -0.014053325
-0.08098813 0.053984046 0.0076301955 -0.07847399 -0.07948793 0.18338719 -0.13025793 0.55649126
0.018402217 0.09150799 0.17030498 -0.016620565 0.031220065 0.08036637 -0.0071893283 -0.099485055
-0.34583473 0.013517154 0.007091944 0.04740382 -0.019430617 0.04975477 0.13399255 0.1353973
0.1019358 -0.08595131 0.08012812 -0.40818715 0.025884945 0.065870866 -0.013427969 0.017332658
-0.0045792283 -0.21380925 0.43220958 -0.035238974 -0.03749494 -0.54721415 -0.11368748 -0.47276574
-0.105318405 -0.05406966 -0.08672519 -0.31174052 -0.24358745 0.060859706 0.07807275 0.003309602
0.03957288 -0.17198119 0.111027874 0.28554654 -0.007578132 -0.1568034 0.07957607 0.031220268
0.04296969 0.13825528 -0.056133494 -0.07132896 0.03810516 -0.112838954 0.06797967 -0.6362915
0.078594804 0.06552671 -0.13891 0.30705965 -0.04006575 -0.006987535 0.05922654 -0.027511688
-0.1627769 -0.030737 0.07121189 -0.0015690788 0.09353587 0.53549695 -0.13313319 0.046498675
-0.069638856 -0.13655141 -0.07829092 -0.029253852 -0.11084043 0.042561814 0.074869595 -0.024042273
-0.07146244 -0.0885991 -0.23469558 0.028760066 0.12323526 0.015317137 0.040113777 -0.10150607
0.2764882 0.004058467 0.03667433 0.041308444 0.3416343 0.21049261 -0.02807849 -0.16285825
-0.03149475 0.09802736 0.17837779 0.07051633 0.59077114 -0.081762694 0.026385602 -0.036877718
-0.02255431 -0.0019796975 -0.050390948 -0.028766233 0.034244414 -0.2140732 0.31954342 0.36771628
-0.1404943 0.118316695 -0.06712925 -0.0712919 0.10093267 -0.29432875 -0.004492823 0.0320012

fc_out.bias f4 [9]
00000000: f1e4 c93d d6ca c6bd 81da 713d 3464 123e
00000010: 901e 033e ba99 09bf ca55 94be 6a5f ba3e
00000020: 52ca d9be
0.0985812 -0.09706657 0.059046272 0.14296037 0.12804627 -0.53750193 -0.28971702 0.3640092
-0.4253717
