trained_policy/dynamic_radii_July_01_only_distance_reward.pth (torch, 282276 bytes, 8 tensors)

fc_state.weight f4 [128, 19]
00000000: 5a6a 67bd aa43 ab3d c99e 443e d789 163e
00000010: d34e d43c b92a 893d f562 293e 9233 1f3e
00000020: 0eaa 013e 93b3 ba3e daf0 243d ad71 16be
00000030: f479 e1bc bcab ca3d c4d3 203d 5d43 673d
00000040: 08d8 b53a eb20 82bd 7dad c03c 1052 f3bc
00000050: 530d d9bd 4919 9ebd 5a94 28be 5c82 173c
00000060: 5896 8d3d 84ef 61bd 158a 7c3d ffe2 4b3d
00000070: b782 66bd 7624 4dbd 7aa3 e33d eff4 b23d
00000080: ebb2 19bd d23c 7abd 60cf 9a3c 8133 c93c
00000090: d6ac 653d 42cf 613e 51ac 8e3c 22cf ff3d
000000a0: ca80 633e 0254 2ebd 6b67 5f3e 75b4 83bd
000000b0: f750 6ebd 151e bc3c 75be ce3d c3d3 02bd
000000c0: 3c2c 25bd 0fb6 2c3e cfb5 c3ba f491 7c3c
000000d0: 9579 953d beb4 0cbe b479 1c3d 24b3 bc3d
000000e0: 8ea6 91be 7c09 ad3d e2cb 2abe 7476 b5bd
000000f0: 1c9f fe3d c479 aabc 51ef fa3d e693 02be
00000100: f3d6 1b3c 72a3 56be 0505 a8bd 66a7 8abc
00000110: 1826 0fbe cd89 ab3d 9d90 d73d c2ca 69be
00000120: 0c23 06bd 957e 503d bac6 ba3d dfc3 973d
00000130: a4e1 6ebd 2cb7 8d3e 5092 b33c 00f8 c03d
00000140: b94f 82be dd8f 153e b004 8b3c cd37 00bd
00000150: 53ed 77bc 34c4 64bd b5cd efbd 20bc c8bd
00000160: 7e8d 4c3e 2691 2fbd 3251 f43d e050 df3d
00000170: 4e47 743e 2afd b9bd 6109 92bc 2b5a 02be
00000180: 2d83 debd b17f 7abe 0381 3a3d be8b 3bbd
00000190: 24dc 4dbd 9c97 c33c 477c 5a3e e142 123d
000001a0: d09b 12be 2d8c a2bd ff62 773c bc80 94bd
000001b0: 97eb fe3c 0b61 1b3d b706 343c 2cf4 7d3e
000001c0: 2124 343d 3c30 303d bbf8 cd3d ed38 17be
000001d0: b660 893d e96b 813d 56af 9d3d 3b17 4bbd
000001e0: 46b2 913d e7e3 88bc bcfd 153e 226f 00be
000001f0: f38a 8e3d 00b4 0bbe cfd3 d23d a70b f8bd
00000200: b87a c33b c843 823e 9542 3a3e 836f 1f3e
00000210: 8fc7 5f3e d1df 66bd 08ac 37bd 6e83 fdbc
00000220: 4aca 9ebc 9ff9 2c3d 3916 943a 7f34 5fbe
00000230: cef6 963c 3f1f 5f3e 1ecd e7bd 2730 233e
00000240: 77d8 60be 7b42 e9bd 5b14 3f3e 60f0 163d
00000250: 9110 d4bc 5c23 30bc 32b9 d33d 1ca0 38be
00000260: b486 033c fc42 3d3e 4da1 87be 2ab3 05be
00000270: 5088 0e3d 1232 1b3d b52d 043e 73e6 bf3d
00000280: e661 fe3b 64b4 843d 9a61 5b3d 39d3 c43c
00000290: 1347 043d 2b2e c4bd 7869 c5bc af6b 463c
000002a0: 77b6 843d e6c3 5cbd 7b69 ba3d 87ec 8c3e
000002b0: 7e68 323e e7ec 473e ed7e 933d cefa 723d
000002c0: a76d 6c3e a9bd 803d 47ad 49bd fdec cbbd
000002d0: 7cee 343e af5e 8f3d 2b49 153e ba5d 663e
000002e0: 1673 b9bb c110 59bb 68df 493d 9e4b acbc
000002f0: 13c4 463d d1f1 4e3c a0b0 19be d4d5 90bc
00000300: 1c89 13be d28f a9be 114e 173d 44e1 f1bd
00000310: a6f9 2dbe 40eb 14bc bb99 ac3c b99a cd3d
00000320: 53ab ac3c a16f 13be edb5 313e 3907 093e
00000330: 5b8c 5d3d 43fc 4a3d fe9f fd3d 5993 a3bd
00000340: 3e53 393e 1d00 5e3e 97c8 c1bd 2773 52bc
00000350: 93d3 a63c 0b7d 7dbd dde6 07be d92e e9bd
00000360: ce55 b4bd 8226 e23c e4e0 ac3d 7c47 21be
00000370: 21dc 93bd a7dc ed3d 482a 9d3d e068 193e
00000380: 7f06 453d b13a 853d 99ac 1abd be7a 993e
00000390: 61bd 0b3e 5f88 543c 5286 23bd 3223 653c
000003a0: d6fd d7bd af5f 943d fa35 efbd db60 213e
000003b0: 9c9d cbbb 5341 883d c7d6 8cbc 24c1 983d
000003c0: 020f afbc b066 34be 5f53 5c3e bf44 013e
000003d0: b37a 1f3e 8946 63be 18b3 e6bd 637d d63d
000003e0: bfc0 253e 6d8a 0dbd 1673 e33c 24c4 3ebd
000003f0: a72d 783d 6d29 c63d c900 443e 950e 13be
-0.05649791 0.08362515 0.19201197 0.14701019 0.025916493 0.06697602 0.16541655 0.15547016
0.12662527 0.3646513 0.040268756 -0.14691801 -0.027523972 0.09896037 0.039264455 0.056460727
0.0013873586 -0.06353935 0.023520226 -0.029702216 -0.105982445 -0.077196665 -0.16462842 0.009247389
0.069134414 -0.05516006 0.061655123 0.049777027 -0.056277003 -0.0500836 0.11115165 0.087381236
-0.037524145 -0.06109316 0.018897712 0.024560692 0.056073032 0.22051719 0.017416151 0.12490679
0.22217098 -0.042560585 0.21816795 -0.06430904 -0.058182683 0.022963563 0.100949205 -0.031940233
-0.04032539 0.16866325 -0.0014931503 0.015415657 0.072985806 -0.13740823 0.038202003 0.09213856
-0.28447384 0.084490746 -0.16679338 -0.08860484 0.124326915 -0.020810015 0.12252677 -0.12751731
0.009511697 -0.20960787 -0.082040824 -0.016925525 -0.13979375 0.08375893 0.1052563 -0.22831252
-0.032748267 0.050901968 0.09119935 0.07410406 -0.058320656 0.27678812 0.021920353 0.09422302
-0.2545145 0.1460566 0.016970009 -0.031303216 -0.015132266 -0.055851176 -0.117091574 -0.09801507
0.1997585 -0.042863034 0.11929549 0.109040976 0.23855326 -0.0908149 -0.017826738 -0.12729709
-0.108648635 -0.24462773 0.04553319 -0.045787565 -0.05025877 0.023876004 0.2133647 0.035708312
-0.1431725 -0.07936893 0.015099286 -0.07251117 0.031118197 0.037934344 0.010987929 0.24800175
0.043979768 0.04301475 0.10057207 -0.14767809 0.06707899 0.0631941 0.07699458 -0.0495827
0.07114081 -0.016710235 0.14647573 -0.12542394 0.06960096 -0.13642883 0.102943055 -0.121115975
0.005965557 0.25442338 0.18189462 0.15569882 0.2185347 -0.05636579 -0.044841796 -0.03094646
-0.019383568 0.042230245 0.0011298127 -0.2179737 0.018428233 0.21789263 -0.1131842 0.15936337
-0.21957575 -0.11389633 0.18660109 0.036850333 -0.025886806 -0.010750618 0.103380576 -0.18029827
0.008027721 0.18482584 -0.2649025 -0.13056627 0.034797966 0.037889548 0.12908061 0.093701266
0.0077631352 0.06479719 0.053559877 0.0240265 0.032294344 -0.09579118 -0.024098143 0.012110635
0.06480115 -0.05389776 0.0910215 0.27524206 0.17422673 0.19523965 0.072019435 0.059321217
0.23088704 0.06286175 -0.049237516 -0.09957311 0.176691 0.07000481 0.14578693 0.22496691
-0.0056594713 -0.0033121558 0.049285322 -0.02103215 0.048526835 0.012630896 -0.15008783 -0.017680086
-0.14407772 -0.3311754 0.036939684 -0.11810544 -0.16989765 -0.009089291 0.021069398 0.10039277
0.021077788 -0.14398052 0.17354555 0.13381661 0.05408893 0.04955698 0.12384032 -0.07987089
0.1809816 0.2167973 -0.094620876 -0.012844837 0.020364558 -0.06188683 -0.13271661 -0.113858886
-0.088054284 0.027606253 0.08441332 -0.15749925 -0.07219721 0.11614352 0.0767408 0.14981413
0.0481019 0.06505335 -0.03776226 0.29976457 0.13646461 0.0129719665 -0.03992302 0.013985442
-0.10546462 0.07244813 -0.11680217 0.15759604 -0.006213857 0.066530846 -0.017192258 0.07458714
-0.021369461 -0.17617297 0.21516179 0.12623881 0.1557415 -0.22194876 -0.11264628 0.10473134
0.16186808 -0.03455584 0.027764838 -0.046573773 0.060590412 0.0967587 0.19140925 -0.14361031

fc_state.bias f4 [128]
00000000: b847 353e 1028 83be e94a 7b3e 5bd0 6e3c
00000010: 9ab4 af3d e03d 1e3e 392d e6bd f5e7 cebd
00000020: 3c4d bf3d fb22 143e bb1f a63d 8963 2ebe
00000030: 1d55 60bc d19f 163e 5ae7 da3d 70de a63d
00000040: 8140 543e 4767 92bd fc10 af3d 5fa3 813d
00000050: bd91 d93d bba8 903d 9386 583e de86 42be
00000060: 82ea 353e 7e1a d0bb f5e8 413e 599c 3bbe
00000070: a9aa ad3d 9146 24be 6e80 c3bd bda5 473e
00000080: 79a1 073d 132f 10be e53c 353e 7bf3 5f3e
00000090: 790f 583d fa4c 6bbe fe37 b9bd 9308 31be
000000a0: 31c1 213e ccf1 8abe 2b70 01bd 8e88 6fbe
000000b0: 55cb 77bd d021 593e 4e28 36be 57d9 69be
000000c0: 41f5 263e 5c3f 71be 9c15 15be 57dd 2dbe
000000d0: 295e 7c3d ad61 4cbe d5ac 1ebe 8432 c9bd
000000e0: 11e9 92bd 2010 3fbe 719d 03be b76b 8ebd
000000f0: 3ef6 ad3d 8dfb b23c 46d5 f13a c8c9 393e
00000100: bc1e 5c3e ef59 2c3e 8b30 eebd 9335 2d3e
00000110: b104 3d3e d05a e13d 2dea 233b 514b 1dbe
00000120: 64a3 d93d a499 ab3d bc93 19be 62d9 34be
00000130: 3aef e8bd fc7f 3fbd 4a81 4e3e df7e b4bd
00000140: 0149 2dbe e13f 3ebe af23 203e dc87 4d3e
00000150: d916 14be 20a3 183e a7cd 30be bdfd eebd
00000160: 9d3d 083e fc35 31be 2864 01bc 4e92 773c
00000170: 3488 4cbe 550f 7ebe 53ca 0f3e 57e8 f73d
00000180: 2912 5fbe 9154 6e3c 5746 573e dc0f f43d
00000190: 6a39 5bbd 5bf5 db3d da84 77be f16b 813d
000001a0: b665 2ebe 241e 253e 9976 383e 410a 62be
000001b0: a453 2ebe f8f8 513e ff14 75be f14a a7bd
000001c0: 2be3 a2bd 803c 45be c0f4 3f3e 93cb 7dbd
000001d0: ab01 76be d6ef acbd e87e a13c c0c9 0bbe
000001e0: b53d aa3d 32f5 983c 03ac 623e e6ed 37be
000001f0: ef28 7d3d 7094 14be 43e7 7bbe 4c76 45be
0.1770314 -0.25616503 0.24540295 0.014576043 0.08579369 0.15453291 -0.11239094 -0.10102836
0.09340903 0.14466469 0.08111521 -0.17030157 -0.013692168 0.14709403 0.10688658 0.08147895
0.20727731 -0.07148605 0.085481614 0.06329989 0.106235005 0.07063433 0.21145086 -0.1899676
0.17765239 -0.0063508144 0.18936522 -0.1832136 0.084798165 -0.16042544 -0.095459804 0.19496818
0.033112977 -0.14080457 0.1769901 0.21870224 0.05274913 -0.22978583 -0.09043883 -0.17288427
0.15796353 -0.271376 -0.031601112 -0.23391935 -0.060496647 0.21204305 -0.17788813 -0.22836815
0.16304494 -0.23559326 -0.14559025 -0.16978966 0.061613236 -0.19959135 -0.15495618 -0.09824088
-0.0717336 -0.18658495 -0.12853028 -0.06954139 0.084942326 0.021848464 0.0018450401 0.1814338
0.21496099 0.16831182 -0.116303526 0.16914968 0.18458821 0.11003649 0.0025011406 -0.15360762
0.106268674 0.08378914 -0.14997762 -0.1766105 -0.11373754 -0.046752915 0.20166507 -0.08813261
-0.1692238 -0.18579055 0.15638612 0.20071357 -0.1446184 0.14905977 -0.1726595 -0.116694905
0.13304754 -0.1730575 -0.007897414 0.015110565 -0.19973832 -0.24810536 0.14042024 0.12104862
-0.21784271 0.014546529 0.21022926 0.119170874 -0.05352155 0.10740157 -0.24171773 0.06319416
-0.17030987 0.16124779 0.18013991 -0.22074224 -0.17024094 0.2050513 -0.2393379 -0.08168591
-0.07953485 -0.1926136 0.18745708 -0.06196172 -0.24024074 -0.084441826 0.019713834 -0.1365118
0.08312551 0.018671606 0.2213593 -0.17961845 0.061806615 -0.1450975 -0.24599938 -0.19283408

fc_1.weight f4 [256, 128]
00000000: 9999 503d 85d8 4cbb c1e2 3c3b fa84 bb3d
00000010: 652f 0d3d 3319 1abe 333a c8bd 83e2 9bbd
00000020: e4f8 de38 db8a 4cbe 2e7a 3ebc 5fcb 1f3d
00000030: 68cf d5bd e1d4 b2bd 2c3e bdbd ac6c f83d
00000040: 124c b7bd aee2 8f3d b480 a1b9 9bd3 e93c
00000050: 2ae6 913c 4f6e 233c abc6 7abc 3313 08bd
00000060: b4ca 78bd 6cc8 013e 8ebb 4ebc 6008 b43d
00000070: accc 303d 3791 083e d40b 003e a25b 0dbe
00000080: e8ff e2bd 5d94 843d 9340 05bd 212d 883d
00000090: 087f 9bbd 20d0 cd3d 5d91 d4bd b594 b03d
000000a0: 7497 e73b f2af 123e 2fe4 cc3d 148c 1b3c
000000b0: 1d28 053d f45e a83d 82d5 09bb 8c10 f23d
000000c0: 3dbb 84bd ae06 5b3d e761 55bd 994b 143e
000000d0: 4e5c 91bc 196c 323e 9832 183e e3e1 5e3d
000000e0: e909 fb3c 909a bd3b 9c33 233b 805b d23d
000000f0: 668b 163d c70f 85bd 2a00 983d 0d21 3d3d
00000100: d6a6 ccbd 7ba1 373b 76e5 0c3e 023e 6fbb
00000110: 5567 223d f997 693d 7898 1a3d e7b2 db3d
00000120: dd91 7bbc 7696 afbd cd60 8e3b 4c4c 3f3d
00000130: 8fb0 2c3e e14d 803d b957 51bc 2d53 d93d
00000140: f82c 033e d2d7 bc3d f796 db3c f10d 28bd
00000150: 2807 d63d 42ef 9fbc ee40 b53b f02a 6d3e
00000160: f6ea 633d 5da2 b33d 7828 95bb d888 cb3c
00000170: 9454 c2bd 0e2c 043e af4a 99bd 4c42 8cbd
00000180: cf4d a5bd a49e dcbc 07ac f3bc de2d 4c3b
00000190: 1ee7 883d 458b 9abd d717 1bbe a1d7 55bd
000001a0: 51c1 053e 07f2 c33c 85aa 683c e69c 5e3d
000001b0: 852a f13d b768 b5bd dcb2 9bbd 9562 cabc
000001c0: a388 bc3a 33b1 32bc a7cb 553d 2c38 883d
000001d0: 69bb 033d 4128 ca3d c9e2 3cbd 62f2 713d
000001e0: ec62 a7bc 1bcf b8bc 7a3c 8d3d aed0 da3d
000001f0: 0efd 0b3d 0cac 433d b53a edba ae28 20bd
00000200: 37ee 253d f82a 303d 2293 0f3d 9373 453d
00000210: d7bc b43d 98d0 ccbc a97d 8abd a3b6 7e3d
00000220: 26e6 15bd 86e3 473c a0ca d53d 96da 11bd
00000230: 0a33 a53c 0b1e e7ba 537b 9f3d 9d1f 3c3e
00000240: 2db6 30bd f3f9 02be bf50 e13b a845 f83b
00000250: 1f14 d8bd 1d2e 543d 5647 a3bd b687 b3bb
00000260: e417 013d 7014 a83c 51ee 8d3d 6fed d4bc
00000270: b959 1d3d 306d dfbc 10cb 54bc 6225 95bc
00000280: 9eba c23d dd99 203d de5d c5bd 703f 74bd
00000290: 843a 023e 0d9d 7dbc 3e7e aebd 83f4 58bc
000002a0: da4a 4cbd 738e e93c 09e5 8e3c 4bac a93d
000002b0: 9648 6d3c ff24 a2bd d394 833d f8b1 ebbd
000002c0: c1f8 bbbd 8f41 15be ba28 74bd 6556 c7bd
000002d0: 3806 a63d 0d69 25bd 14ef cebd 794e c1bd
000002e0: 2771 08bd ee38 03bc 5f24 7fbd 5e94 1c3b
000002f0: c15e 373d 8370 41bc ddf1 b0bd 6e88 99bd
00000300: b4b1 03bd ddbe 9d3d 808b d8bc 3d48 e8bd
00000310: 3b4a 5cbd 9c4e 3ebd ca69 003e 0c67 87bd
00000320: d028 d93d 40b5 c13d f527 4a3c 7626 7cbd
00000330: 594c 2abd 01d0 3dbd 4014 d5bd a806 983c
00000340: 6fbb 6a3d d0a2 53bd 6b3c 7abe 2b71 d43d
00000350: 2b16 7e3d 8039 21be 2bd9 3f3e cfd8 0e3d
00000360: 71cb 1bbe 101c be3d e4a2 0cbe 36e4 94bb
00000370: 2fcd b9bc 1514 e8bc e0a0 35bc 52ae 6d3d
00000380: e5c0 063e 5253 cb3b f45f 87b9 ec72 563b
00000390: 71b5 203d b25d 35bd d74c 70bd 7444 173b
000003a0: a922 76bc 378c 1d3e 4dd8 8f3d bc56 ad3c
000003b0: c728 823b ea41 1b3c 0d1b 00be dcbe 08bd
000003c0: f889 c4bd 1eb0 d2bd 8782 103e 0596 0cbe
000003d0: 999a b63d 635b e3bd ddc4 ea3d 2b93 293d
000003e0: e7f2 0f3d 9544 24be 9d6b 9cbd b7d5 ddbd
000003f0: ce94 a43c 6dd3 9fbd f59a 6e3d b89d a03d
0.050927732 -0.0031256985 0.002882168 0.09156223 0.034469027 -0.15048675 -0.097767256 -0.07611563
0.000106321444 -0.19974844 -0.01162581 0.03901231 -0.1043995 -0.0873201 -0.09240374 0.121301025
-0.08950056 0.070256576 -0.00030804204 0.028543284 0.017809946 0.00997503 -0.015306155 -0.033221435
-0.060740188 0.12674111 -0.012617959 0.0879066 0.04316394 0.13336645 0.12504512 -0.13804486
-0.110839665 0.064736106 -0.032532286 0.06649233 -0.07592589 0.10049462 -0.10379288 0.086221136
0.007067615 0.1432493 0.1000446 0.009493846 0.032508958 0.08221236 -0.0021031802 0.11819562
-0.06481025 0.053473167 -0.05209532 0.14481963 -0.01774421 0.17424048 0.1486305 0.05441464
0.030644374 0.0057862476 0.0024902588 0.102713585 0.036754034 -0.0649715 0.07421906 0.046174098
-0.09992759 0.0028019834 0.13759407 -0.0036505465 0.039649326 0.057029698 0.03774306 0.10727482
-0.015354601 -0.0857362 0.0043450356 0.04670362 0.16864227 0.06264854 -0.012777262 0.10611568
0.12810123 0.09220852 0.026805384 -0.04102892 0.10450584 -0.019523267 0.005531422 0.2316091
0.055643998 0.08771203 -0.0045519434 0.024845526 -0.09488788 0.1290743 -0.07484948 -0.068485826
-0.080714814 -0.026931114 -0.029745115 0.0031155269 0.06684707 -0.07546095 -0.15145813 -0.052207593
0.13062026 0.023919119 0.014200811 0.05434885 0.11775688 -0.088578634 -0.07602474 -0.02470521
0.0014383983 -0.010906505 0.05219617 0.06651339 0.03216115 0.09870959 -0.046114717 0.059069045
-0.020432912 -0.022559693 0.068963006 0.10684334 0.03417688 0.0477715 -0.0018099161 -0.039101295
0.040510383 0.04300973 0.035052426 0.048205923 0.08825081 -0.025001809 -0.06762249 0.062185895
-0.03659644 0.012200242 0.10439038 -0.03560885 0.020165939 -0.0017632855 0.07787194 0.18371435
-0.043142486 -0.1279066 0.0068760808 0.007576663 -0.10550713 0.05180179 -0.079725906 -0.0054788245
0.031516925 0.020517558 0.06930221 -0.025992123 0.038415644 -0.027273744 -0.012987867 -0.018206302
0.09508251 0.039209235 -0.09637044 -0.05963081 0.12717634 -0.015479338 -0.085201725 -0.01324189
-0.04987607 0.028510308 0.017443197 0.082848154 0.014482638 -0.07917213 0.0642487 -0.11508554
-0.091783054 -0.1457579 -0.059609152 -0.09733275 0.08106655 -0.040383387 -0.10104194 -0.094387956
-0.033311035 -0.008009179 -0.062290546 0.0023892145 0.0447681 -0.01180661 -0.08639882 -0.07496725
-0.032151893 0.0770242 -0.026433706 -0.11341903 -0.05378173 -0.046461686 0.12540355 -0.066114515
0.106034875 0.09458399 0.012338628 -0.061560117 -0.041576717 -0.046340946 -0.10404253 0.018557861
0.057307657 -0.051668942 -0.2443711 0.103731476 0.06203286 -0.15744591 0.18735187 0.034874734
-0.15214325 0.09282696 -0.13734013 -0.0045438064 -0.022680847 -0.028329888 -0.011085719 0.058027573
0.13159521 0.006205001 -0.00025820697 0.0032722307 0.039235536 -0.044278808 -0.05866703 0.0023081573
-0.015022912 0.15385519 0.07023678 0.021159522 0.003972146 0.009476164 -0.12510319 -0.033385143
-0.09596628 -0.10287498 0.14112292 -0.13729103 0.08916206 -0.11101415 0.1146333 0.041400116
0.03514376 -0.16041787 -0.07637713 -0.108317785 0.020090487 -0.07803998 0.058253247 0.078425825

fc_1.bias f4 [256]
00000000: b537 45bd 8612 c3bc 79c4 293d ae5c 40bd
00000010: df1e 983a 6f1f d13c d954 8abb 3c40 11bc
00000020: 309e 513d 8f21 cdbd b035 703c 933f 963d
00000030: 466d 273d 91cd a3bc 21ac b23d d16b be3d
00000040: eab6 c1bd c571 ec3c a947 a43d ac83 72bc
00000050: defa 623d f375 843c 87f2 f63c 454a bfbb
00000060: 0af6 bdbc db04 aa3c 5276 0bbd bb93 aebd
00000070: 3800 cabd d32e 603d 2f77 0d3c e581 afbd
00000080: 8870 5dbb 2e2c 883d ddc4 3f3c 0adb 193c
00000090: 0c70 3fbc 0a5a c4bd 3837 afbd c835 4abc
000000a0: d072 e93c 7772 8bbd ad9c 133d 313e 35bd
000000b0: 40b7 f2bc 841f 8bbc 30c3 57bd 96e8 da3c
000000c0: 80c9 68bd b332 a33d 1b58 a43c 4ee0 5f3d
000000d0: 72d5 a1bd d9ac ab3c 4dda bc3c c35f 02bd
000000e0: 2b4d 2cbb 7612 25bd b4fb 103d bbb7 a9bb
000000f0: 28c9 233d 27a4 953d 14b7 06bd 487c 01bd
00000100: c90b 803d 6f47 eebd b301 d7bc 939a 1b3c
00000110: 74bb e23c e5c7 48bd c889 8ebc 3057 d7bc
00000120: 16d0 94bd 85ff a83c bc66 4d3d 42a1 983c
00000130: 8361 cebc dd4b a93c e078 50bd ec63 81bd
00000140: d0f9 4f3d 7422 2f3d 2a4b 8fbc f3a9 a33d
00000150: bdb4 a0bb 68a8 733d 0c81 25bb 425f b13d
00000160: 7bad 82bd 765e 113d 65f2 96bd ea80 8ab8
00000170: 4506 873d af35 c13c bcc8 0cbd ac2b 31bc
00000180: d4b1 a9bd 601e 5abd 5db8 d8bd a227 033d
00000190: 1766 5cbd 7188 583d 5f19 00bd 815d 3cbd
000001a0: 7c63 11bd 2b20 873d 894b 933c bd7d 8c3d
000001b0: f93c 95bd 7a02 013c dadd 503a 8da1 353d
000001c0: dcea c13d 2819 95bd 3fc7 483d 8a77 08bd
000001d0: e631 b2bd 0a87 7ebc 66bf 2d3d 95a9 a63d
000001e0: a62d 403c 1cee 903d b278 b8bd 4926 1abd
000001f0: f0df 7bbd a765 80bc c9c7 d6b9 6477 b33d
00000200: 8f12 653d 938a e43c d367 ab3d 24f0 a5bd
00000210: d104 8c3d fdec 03bd e77e 823d b0f8 2cbd
00000220: efd1 e73b 215e fabc 8897 b8bd 47be 60bd
00000230: 52e4 92bc 54f1 003b 9f23 02bc f9c2 9d3d
00000240: 05b2 5b3d 5112 523c 193b f03c 8ccd 833d
00000250: a9bb 2dbd a2e1 4d3c d12c 1f3d 0b48 c63d
00000260: 84b1 3f3c 6564 8a3d cd5e 953b 8419 003d
00000270: 64ea bebd 1aba 4a3d 5f02 77bd 2752 a7bd
00000280: 721c 7fbd 8d40 5dbd 3238 2e3d 4352 22bd
00000290: e211 d1bd 3568 79bd 12dd 25bd ad35 1e3d
000002a0: b20b 55bd 2512 b7bd f017 133c 16db c93c
000002b0: 2509 563d 9471 47bd 6a81 5bbd 8cd5 5c3d
000002c0: 1ce7 30bc dfeb f63c f0e8 1dbd 0848 443d
000002d0: 20ab 5bbd d02b f73b d08e 823d 1257 5d3c
000002e0: 0362 5cbd 914c 713d bee6 c2bd 5cc0 ecbb
000002f0: efa8 7f3d 37d8 f43c a29e 2e3d b15a 98bd
00000300: 4cba 9b3c f89c 863d 140a ce3c a126 e6bc
00000310: 29bd 203a e566 123c 9d05 933d 2d20 53bd
00000320: 4da9 5cbd bf89 88bb 6f1c c2bc 1073 923d
00000330: dace a1bd 6302 933d 36aa 383d e4ff adbb
00000340: 0089 af3c 4ae4 a9bd 3f3a d5bc de68 c43d
00000350: 0b36 df3d ea2d 95bd 0b5e 0dbc 0534 303d
00000360: 09fd bebb 18a5 e1bd 5332 e5bc e0b0 1fbd
00000370: 2a59 f5bc 480a 0abc 0784 7f3d c850 d8bb
00000380: 2fad a93d 1ad9 953d dc91 50bd 2f54 453c
00000390: b187 823d d709 48bd 6c6d f6bb 081c 96bd
000003a0: 3cbe 413d d6a5 ba3d a97e bd3a a2d0 5a3c
000003b0: 13eb 5f3c 4fcb 933d 2ed7 f63c e51b b73c
000003c0: 8e4b 833c d00b 333d fe12 4cbc 84c7 29bd
000003d0: f158 1d3d 1097 d13c f88a 3b3d ebc2 7b3c
000003e0: 34dd 083d e099 793d 00f0 013d 7203 0abd
000003f0: 50ef acbd c216 453d 0edb c4bc 5754 65bd
-0.04814883 -0.023812544 0.041447137 -0.046963386 0.001160588 0.025527684 -0.0042215404 -0.008865412
0.05117625 -0.100161664 0.014661238 0.073363446 0.040875696 -0.019995483 0.08724237 0.09297908
-0.09458716 0.028862843 0.080214806 -0.014801901 0.055415027 0.016169524 0.030144943 -0.005837711
-0.02318861 0.020754268 -0.034048386 -0.08524271 -0.09863323 0.054732155 0.008634373 -0.08569697
-0.0033788998 0.066490516 0.011704651 0.009390602 -0.011684429 -0.09587486 -0.08555454 -0.012341924
0.02849713 -0.06808942 0.03603809 -0.044248763 -0.029628396 -0.016982801 -0.05267638 0.026722234
-0.05683279 0.079686545 0.020061543 0.054657273 -0.079020396 0.020956444 0.023053313 -0.031829607
-0.0026291113 -0.04030081 0.035396293 -0.005179373 0.03998676 0.073067 -0.03288944 -0.031612664
0.06252248 -0.116347186 -0.026245927 0.009497303 0.027677275 -0.04901876 -0.017399684 -0.026286691
-0.07266252 0.020629654 0.050146803 0.018631581 -0.025192982 0.020666057 -0.050896525 -0.06317887
0.05077535 0.042757466 -0.017491896 0.079913996 -0.004904358 0.059486777 -0.002525392 0.08660747
-0.06380745 0.035490476 -0.07370452 -6.604365e-05 0.06592993 0.023585169 -0.034371123 -0.010813635
-0.08285871 -0.053251624 -0.105820395 0.03202022 -0.053808298 0.052864496 -0.031274196 -0.04598761
-0.035495266 0.065979324 0.017980354 0.0685992 -0.0728702 0.007874126 0.0007967629 0.04434352
0.09468624 -0.07280189 0.04901814 -0.033317126 -0.087009236 -0.0155351255 0.04241886 0.08137814
0.011729633 0.07076666 -0.09007396 -0.037634168 -0.06149286 -0.015673472 -0.00040966112 0.08763006
0.055925902 0.027898109 0.08369412 -0.08102444 0.06836856 -0.03220843 0.06371861 -0.042229354
0.0070745866 -0.030562462 -0.09013277 -0.054868963 -0.017931137 0.0019675093 -0.007943063 0.07703204
0.05363657 0.01282175 0.029325055 0.06435689 -0.042415295 0.012566002 0.0388611 0.0968171
0.011700038 0.0675743 0.0045584203 0.031274334 -0.0932205 0.049493887 -0.060304996 -0.08169966
-0.062282987 -0.05401664 0.04253406 -0.039629232 -0.10208489 -0.060890395 -0.040494032 0.038625408
-0.052013107 -0.08939008 0.008977875 0.024640601 0.052254815 -0.0486923 -0.053590216 0.05391459
-0.010797288 0.030141769 -0.038552225 0.047920257 -0.053629994 0.0075430647 0.063748956 0.013509529
-0.05380441 0.05891091 -0.09516667 -0.0072250795 0.062416967 0.029888256 0.042631753 -0.07439173
0.019009732 0.06572908 0.02515129 -0.028094592 0.00061317027 0.008935665 0.07178805 -0.051544357
-0.053872395 -0.0041668112 -0.023695199 0.07150853 -0.07900782 0.071781896 0.0450842 -0.0053100456
0.021427631 -0.08295496 -0.02602875 0.09590314 0.1089898 -0.07284148 -0.008628379 0.04301836
-0.005828504 -0.11017817 -0.027978098 -0.03898704 -0.029949743 -0.008425303 0.06238177 -0.0066014268
0.08284985 0.073167995 -0.050920352 0.012043997 0.06373537 -0.04883751 -0.0075203683 -0.07329565
0.047300562 0.09113662 0.0014457303 0.013355406 0.013666886 0.072165124 0.030131903 0.022352168
0.016027238 0.043712437 -0.0124557 -0.04145004 0.0384149 0.025584728 0.045786828 0.015366296
0.03341408 0.060937762 0.031723022 -0.033694692 -0.08444083 0.048117407 -0.024030235 -0.055988636

fc_2.weight f4 [128, 256]
00000000: d2a2 453d 2f15 8dbb 37e9 17be 8a52 fe3c
00000010: dd76 fe3d 70ba d8bb baa2 b6bc 9a3e 07be
00000020: cec0 cabc 759f 23bd 499c 56bc 3267 43bd
00000030: b951 2cbb cb95 df3d 2222 14be 93dc b9bc
00000040: e4c2 053e d5f2 60be 11f4 953d 3c00 9f3d
00000050: d92e a33c 0a12 f0bc d995 fe3d a27e 9bbd
00000060: 5398 d6bb 29ad a2bd 1dce c23b c820 0dbe
00000070: f4dd 7d3d 2d6f b03c 295c cc3c f85e 49bc
00000080: e185 663d 7dc0 773c ca0a 0c3c fbfd c13c
00000090: a8c2 40be 1267 763d 6676 9d3d 06e8 453d
000000a0: 9220 90bc ce47 fb3c 13d8 663c 40ce b03d
000000b0: 8ec3 bd3c 7860 e63d 3b02 193d d21c 5bbd
000000c0: ed81 bdbc 18f9 4b3c 48bc 403d 1a9d 12bd
000000d0: ff14 f13c d96a 1c3e 0ca6 be3d a4c4 e2bd
000000e0: e747 40bd f2ad 1cbd a279 1f3d c471 89bd
000000f0: 4205 5a3d da27 8cbc 3a11 ed3c 18b9 0a3e
00000100: 480a 43bd dd0d 8b3e 2843 8a3d 079a 8abd
00000110: cd8f bf3c 3e2c 1cbe 9661 893d 0f1f 81bd
00000120: 8de4 16bc 13c7 01bd c787 febc 7519 fb3d
00000130: 4355 473e 3e95 803d b7c6 ca3d 78bf c1bd
00000140: b77f 95bc 9491 a6bc 1748 33bd 3694 ecbd
00000150: 6801 89bb 6eba bfbd 32c9 f6bc 7091 623d
00000160: 4042 5e3c e0a1 d7bd 30b8 5d3c 6735 5cbd
00000170: 7777 a23c 0518 c83d f797 e33d 6dc2 b0bc
00000180: ae55 793d 278d 2a3c e23c 803d 9a6f 993d
00000190: 03a2 873c 8f61 c7bd 3c71 a2bc b6c5 96bd
000001a0: 243a 11be ca51 093e 6741 4a3d 6e67 f73c
000001b0: 17e4 353d 6d94 fbbd 81d5 dcbc 3a4f 6dbc
000001c0: 62ad 93bd 983d 26bd 0bc5 dabd 109c 1c3c
000001d0: d494 483c f4f2 8c3d 9c2d 803d 32e6 50bd
000001e0: 0096 833d 8302 d7bd 2805 353c bdfd 563c
000001f0: 2032 d33c 951a 0bbb 790a 893c 4488 1fbd
00000200: 8e3a 3bbd 3bec 6e39 9dc3 b6bc d250 cabc
00000210: 4403 d8bd aa8c 0c3d 0f0b f5bd 3904 93bd
00000220: 7015 0e3e e783 3bbd b09f f53d 62a7 d43d
00000230: 0bdd b0bd b346 a0bc 0d7e 42bc 0c9d 95bd
00000240: 5a35 903c 8080 813d afce 713d a149 b5bd
00000250: 7315 1dbe 7fd4 43bc 6a85 4bbd 11f3 443c
00000260: fabf 7ebc 30ab 9bbd f97f 503c 6436 833d
00000270: eca4 82bd 46e4 2c3d 8783 b4bc 0b8e b43b
00000280: 47d5 1c3d b786 1fbd 1e0f 5b3d cbfb f2ba
00000290: 4eb0 1cbb a2c8 84bd 32e4 90bd 504b 9a3c
000002a0: 7d79 ecbd ee72 173e 9f99 1fbd 320e 853c
000002b0: f4ec 603d c0f4 3cbc b5e1 f83c a1d4 55bd
000002c0: 08a0 d53c 3cf9 243e 2aef d4bd 3e85 323e
000002d0: 61ef 1c3d 0376 963c 2f8f 3cbe 20fe 273d
000002e0: d038 643d d13b 66bd 4789 a1bd f3db 22bb
000002f0: b62c 16be 8c6f 343e 3cdf 80bd ebf4 9f3d
00000300: 799c 34bd 13af 8dbd df6c e7bd d47c 99bc
00000310: 4b57 763a d911 cfbc d9a7 a6bb 6d00 eebc
00000320: 1c15 3dbd ef82 a23d f161 3bbd 08fe a6bd
00000330: 23fa a6bd b561 e5bc 2a2c 87bd 30bf ba3d
00000340: 024d b5bd 51f9 fc3c 6a0d a63d ac78 88bd
00000350: 403a b3bc c094 683d 4bbe 7dbd e2cf ee3b
00000360: 6a74 44bd 3cf7 c5bd 5994 b3bd d61d 8abc
00000370: c72e adbc 3c0c 3ebd 9750 173c f54c 183e
00000380: 24a5 44bd 4f69 51bd fbf9 25bd ec6f 4fbd
00000390: 4540 633c 54e1 963d 0814 d03d 2379 09bd
000003a0: 4320 01bc 6aa6 883d a875 843c 1c9b 833d
000003b0: 7571 9cbd 9804 e5bd 9c04 003d 48b8 723c
000003c0: 95ae 2e3d c2bd b53c 6eec d13c a3b4 08be
000003d0: 325f 8a3c aa36 39be d50c 3a3b 5a7c cabc
000003e0: ec54 e1bd 67f4 e9bc 4471 2e3e 36ea acbd
000003f0: 4c93 fb3c 48b8 6b3d 8ccc 9bbd 7463 823c
0.04825098 -0.004305504 -0.14835058 0.031045217 0.12425015 -0.006614022 -0.022294391 -0.13207474
-0.02475014 -0.039946992 -0.013098785 -0.047705837 -0.0026293828 0.109172426 -0.14466146 -0.022688186
0.13062626 -0.21967633 0.073219426 0.077637166 0.0199198 -0.029305477 0.12430925 -0.07592513
-0.00654892 -0.07943184 0.005944981 -0.13782036 0.06197925 0.021537388 0.02494629 -0.012290709
0.05628002 0.015121576 0.008547494 0.023680678 -0.18824255 0.06015689 0.07688598 0.048316978
-0.017593656 0.030673888 0.014089602 0.08633089 0.023164537 0.11248869 0.037355643 -0.053494282
-0.023133243 0.012449525 0.04705456 -0.035794355 0.029428957 0.15275134 0.09309015 -0.110726625
-0.04694357 -0.038251825 0.038934357 -0.06711152 0.05322767 -0.017108846 0.028938878 0.1354717
-0.047617227 0.27159014 0.0675109 -0.0676766 0.023384 -0.15251252 0.06708066 -0.06304752
-0.009209764 -0.031683993 -0.031070603 0.12260715 0.19466119 0.06278466 0.09901183 -0.09460348
-0.018249376 -0.020333089 -0.043769922 -0.115517065 -0.004181076 -0.093617305 -0.030125234 0.05531448
0.0135656 -0.10528922 0.013532683 -0.053761866 0.019832356 0.09770206 0.11112969 -0.021577084
0.060872726 0.01040963 0.062616125 0.074919894 0.016556745 -0.09735405 -0.019829385 -0.07361929
-0.14182335 0.13410106 0.04937878 0.030200686 0.044406977 -0.12284169 -0.026957275 -0.014484221
-0.072108045 -0.040586084 -0.10682114 0.009558693 0.012242515 0.06882277 0.06258699 -0.05100078
0.064250946 -0.10498526 0.011048593 0.013122019 0.025780737 -0.002122556 0.016728627 -0.038948312
-0.04571014 0.00022785451 -0.022310073 -0.024696741 -0.10547498 0.034313835 -0.11965 -0.0717854
0.13875365 -0.04578009 0.119933486 0.10383488 -0.086359106 -0.019564962 -0.011870873 -0.07305345
0.017603565 0.063233376 0.059035 -0.08851934 -0.15340213 -0.0119525185 -0.04968778 0.012020842
-0.0155487005 -0.07601011 0.012725824 0.064068586 -0.063791126 0.042209886 -0.022035373 0.005510097
0.038289335 -0.038946833 0.053481214 -0.0018538175 -0.0023908797 -0.0648358 -0.07074775 0.01883474
-0.115466096 0.14789936 -0.038964864 0.01624212 0.054913476 -0.011532962 0.030381063 -0.05220473
0.026077285 0.161107 -0.103971794 0.1743364 0.038314227 0.01836682 -0.18413995 0.041013837
0.055718243 -0.05620939 -0.07887512 -0.0024850338 -0.14665493 0.17620677 -0.062925786 0.07810386
-0.044094536 -0.069181584 -0.113000624 -0.01873628 0.0009397163 -0.025277065 -0.005085927 -0.029052937
-0.04616271 0.0793513 -0.0457477 -0.08153921 -0.081531785 -0.028000692 -0.066002205 0.09118497
-0.08852579 0.030880602 0.08108027 -0.06663641 -0.021878362 0.056782484 -0.061949056 0.007287965
-0.047962584 -0.09666297 -0.087685294 -0.01685993 -0.02114047 -0.046398386 0.009235523 0.14873107
-0.048009053 -0.05112582 -0.040521603 -0.050643846 0.0138703035 0.07367197 0.10160071 -0.03356279
-0.007881227 0.06672366 0.016169384 0.06426069 -0.07638828 -0.11182517 0.031254396 0.014814444
0.042646963 0.02218521 0.025625434 -0.13350157 0.016891096 -0.18087259 0.0028388996 -0.024717499
-0.11002526 -0.028558923 0.17035395 -0.0844311 0.030709885 0.05754879 -0.076073736 0.015916564

fc_2.bias f4 [128]
00000000: 26bf 70bd a743 103d dda8 60bd f62f 5cbd
00000010: 22bd 1abd dc97 eb3c 43de 3dbd db8e cabc
00000020: d3b3 6f3d baa7 363c 1f5c 68bc 57fc 093c
00000030: 6a52 24bc 1006 863d 07b0 853d ba12 6bbc
00000040: be52 2e3d 3c85 cb3c 23bd 04bd 25be 65bc
00000050: e18d 673d 1911 4c3d 6f6e 0e3d c284 0a3d
00000060: d32a 683d 9197 84bd c0ed 873d f82d b93b
00000070: 56dd ddbc 63bf 553d b291 3e3d 43a6 8cbb
00000080: 74d0 3fbd c499 49bd e71a 3fbd 44e7 0abc
00000090: cf04 453d 8989 f9ba ea56 74bd 9f9d 2dbd
000000a0: 9117 5ebd 8aad db3c 095e 1e3d 3a96 7ebd
000000b0: 3ebb a3bc fe0c b7bc 7e43 d4bc 63cb 693d
000000c0: 73f3 49bc 2844 5bbd a068 c7bc cf1f d63c
000000d0: 8d1e 88bd 3282 1fbc 6540 22bc 795e 57bd
000000e0: bd2d a9bb 6372 1a3d 8eeb 033d f521 37bb
000000f0: d546 4c3d 559d fe3c 27d8 d53c 658a 70bd
00000100: 6bcf 7e3d 4035 4cbd bb68 323c 66f0 d33c
00000110: 3f61 5e3d 3ce4 d73b 2101 33bd 96c6 a13b
00000120: 81af e1bc 3dc9 bd3c 1e68 113c 764d 40bd
00000130: 784a 7bbc 904e 363c 15f1 1ebd cc3f ae3c
00000140: 1c66 053d 608f 973c eab3 58bd c73d 0bbd
00000150: f807 4ebb c923 5ebd f42b 9a3d e068 1bbd
00000160: 9fe8 8cbd 317c d2bc b823 c93c b492 b639
00000170: 3246 5e3d 528f 92bc ba7d fbbb 5bd1 28bd
00000180: 023d 683d 509c 36bd 98f8 013c 731b 46bd
00000190: 4b1f 313d 4c31 983b e19a a53b 33ee 8a3c
000001a0: 8a04 61bb b85a 923b c27f 80bd 0046 2fbd
000001b0: 6da8 253d 9e5a 013c c173 2bbd e0e3 77bc
000001c0: 34b7 16bc a7cd 113d e89e d3bc b187 3d3d
000001d0: 04e0 f83c 8f17 373c 8d16 5fbd 40dd 2a3d
000001e0: 4348 ebbb 26b7 0b3d 9e63 1abd ba08 e4bc
000001f0: 6d97 123b b3a1 26bd 776a 703d be2e 4b3d
-0.058776043 0.03522077 -0.05484854 -0.053756677 -0.037778027 0.028758936 -0.046354543 -0.024726322
0.058521103 0.011148388 -0.01418212 0.008421979 -0.010029415 0.06544125 0.06527715 -0.0143477265
0.042559378 0.024843805 -0.032406937 -0.014022385 0.05653179 0.049820993 0.034773286 0.033818014
0.056681465 -0.064742215 0.06637144 0.005651232 -0.02708308 0.052184474 0.046525665 -0.004292281
-0.046829656 -0.049218908 -0.046656515 -0.00847799 0.04810029 -0.0019038181 -0.0596532 -0.042386647
-0.054221693 0.026816148 0.038663898 -0.062154986 -0.019986745 -0.022345062 -0.025911089 0.05707873
-0.012326109 -0.053531796 -0.024341881 0.026138214 -0.06646452 -0.009735631 -0.009903048 -0.05258033
-0.005162923 0.037706744 0.032207064 -0.0027943824 0.04987224 0.031080881 0.026104046 -0.058725733
0.062209528 -0.04985547 0.0108892275 0.025871467 0.05429196 0.006588487 -0.04370225 0.0049370034
-0.027549507 0.023167247 0.008874921 -0.046948873 -0.015337579 0.011127129 -0.038804132 0.021270655
0.032568082 0.018500984 -0.052905954 -0.033994462 -0.0031437855 -0.054233346 0.07527915 -0.037941813
-0.068803065 -0.025693985 0.024553165 0.00034823047 0.054266162 -0.017890606 -0.0076749 -0.041215282
0.056698807 -0.044582665 0.0079328045 -0.04836602 0.043242734 0.0046445485 0.0050538634 0.016959285
-0.003433498 0.004466381 -0.06274368 -0.042791367 0.040443826 0.00789514 -0.04185844 -0.015130013
-0.0091989525 0.035596516 -0.025832608 0.046271984 0.030380256 0.01117505 -0.054464865 0.041714907
-0.007180245 0.03411021 -0.03769266 -0.027836192 0.0022368089 -0.040681552 0.058695283 0.049605124

fc_out.weight f4 [9, 128]
00000000: 3951 babc c2be 81be 2ec3 6f3d 2e4c 6d3e
00000010: 1cd8 58be acb3 0e3c a81d 083e 5b2b b33d
00000020: 3136 70be 40a7 d4bc 033f c83d 6660 dc3d
00000030: 8460 17be b443 b1bd 613a d33d 3102 dbbd
00000040: ca7d 04be 86ed 373e 4f73 e23d 4a59 213d
00000050: c1f5 a3bd 3d0f 2e3c b42a 3abe 0856 fabd
00000060: 9bc9 3bbe abab 60be adc5 dcbd 31c0 6d3c
00000070: 9bc0 4cbe 4781 64bd de77 68be 2061 1dbd
00000080: 4b95 d93c b090 363e 044a 383e d694 403e
00000090: d075 4dbd 13ed b3bd 9438 733c 1693 9a3c
000000a0: 5d8b 613e 770f 2f3e 5b3c 21bc 8c1b 16bd
000000b0: 1049 64bd ffa6 43bd 0b42 d53d 9bde 9bbb
000000c0: e678 88bc e209 083e 37cb 4a3d 70fa 603d
000000d0: 820a 983d fd46 12bd 9af7 d8bd 43b4 9f3d
000000e0: fb39 cbbd dbda adbc 2840 ae3c 9891 e33b
000000f0: 1546 efbc 8481 803d 4bab 2e3d a534 02be
00000100: 388b 0b3d 3eeb 32bd 0d43 63be c1bf f3bd
00000110: 5f19 9bbe 8100 173d 8d53 1abe 89fc 003d
00000120: 7498 163e 2e28 89bd 8e48 81bd 133a 2e3e
00000130: e119 873d 0ea5 173e dc7e e9bd 9eed 63bc
00000140: 3d96 e73d 5d58 dbbd fcb4 3fbd d308 7c3e
00000150: ba2a 283e 837e a63c d673 dbbc 094c 6f3e
00000160: a4ed d93d f2fb a13c 254e 123e 8a3f 10be
00000170: 493c a63b 86ae bc3c af07 99bd 523e 46be
00000180: 6ca3 92be 24c8 663e 10aa 76be 49e6 88bd
00000190: 631d 233c 35c5 943d 3a59 1d3e 2fc0 32be
000001a0: d23c f43d 825d 07be 797a d03d 0f2a 9a3c
000001b0: a526 a2bd efd0 debd 8bc4 28bd 0442 9cbe
000001c0: 049c 123e e131 a6bd f5d9 eabd 4905 b7be
000001d0: 46ba 233e 9a75 88bd c800 01be 2060 9f3d
000001e0: 76e1 1abe fa8a 273e a663 de3b 5aea 04be
000001f0: 122b af3d 21ff 093e 7ff1 c6bd 44b3 013e
00000200: c45a 093d 4173 4dbe e060 8f3d 8d68 cc3b
00000210: 33bd 9a3d e2e6 f23c 4e87 c03c 4294 2cbd
00000220: 04ec 9abb 3d14 d13d 0a27 f73d 51bd 7cbd
00000230: 2a3f a5bc b9f5 15be 1e16 553e b411 7ebd
00000240: 8f33 2c3e c964 2fbd 010a 6b3d 1ebc 353d
00000250: 48d1 30be 546f 8e3d 45bb 6cbe 3c53 2d3c
00000260: 87f2 bcbd cd19 fabd 440a 2abe 45f2 403c
00000270: ca4b 3fbe cce8 4f3e f7ad d93d fcff 163e
00000280: aadb ef3d 2114 ca3d d6f6 0bbe 33b5 61bd
00000290: a5dc 8e3d ce76 edb9 53e9 ed3d 2c8b 78bd
000002a0: 5a6c d13d 3744 f13d b4fc d73d b4f5 2c3c
000002b0: a077 113e 3b28 8ebd 62ed 19bd 4f13 653c
000002c0: 22df 89bd b7fa 453e be44 54be f9ce 8e3c
000002d0: 1e80 233e 7a9a 9cbe e55d 12be 233b 7cbe
000002e0: 3d73 c9bc 112c 79bb ca87 143e 3dae 213e
000002f0: c0f9 303e 6dba aa3d 0fc6 f2ba f5ad f33c
00000300: 8378 bcbc 9b23 913c 6e3c a33c 59c9 20be
00000310: dd86 613d 94e1 163e 2393 3f3d ef19 213d
00000320: 02b3 1a3d 9ca6 9bbd 2696 f1bd a9c4 1f3c
00000330: 5a1b c7bc e078 9f3d f732 493e 5601 fdbd
00000340: 5847 e3bd 605e 1d3e d9da 123e f641 713e
00000350: 0d35 983c 6fb4 533e 2a32 9c3d d896 a83e
00000360: 7d16 cb3d 5692 d6bc 4999 5c3e 752a 8a3d
00000370: 3d00 d63d 96b7 15bd 660f ba3c 606d b23b
00000380: d9c7 f1bd 525d ce3c 1e5c 133e 2505 3fbe
00000390: 5cad 183e 0c09 ca3c d47b 0c3e 09e3 e5bd
000003a0: 70f1 c63c fe18 67bd 823b d23b e1a4 173e
000003b0: 0910 de3d 6d8b 0f3e 8dac 64be ef16 4dbc
000003c0: 1bc5 e03d 5e03 eabd b57e 5cbd a916 333c
000003d0: baf5 d53d 7c6d 13be e11f e9bd e60f 7dbd
000003e0: a037 8abd 65dd 01bd 8ab2 e03c 3b3c 8ebd
000003f0: 08ca 5f3e 08da d03d 8839 abbd 939a 21bd
-0.022743808 -0.2534085 0.058535747 0.23173591 -0.21176189 0.008709829 0.13292563 0.08748504
-0.23458172 -0.025958657 0.097776435 0.10760574 -0.14782912 -0.086554915 0.10313869 -0.10693777
-0.1293861 0.17961702 0.110571496 0.039391793 -0.08005858 0.01062375 -0.18180352 -0.122234404
-0.18338625 -0.21940486 -0.10779891 0.014511154 -0.19995348 -0.05578735 -0.22701976 -0.038422704
0.026560446 0.17828631 0.17996985 0.18806776 -0.050161183 -0.08785453 0.014845032 0.018868964
0.22025819 0.17095743 -0.00984105 -0.036647364 -0.05573374 -0.04776668 0.10412987 -0.0047567612
-0.016659211 0.1328502 0.049510207 0.054926336 0.07423879 -0.03571223 -0.10594101 0.07798054
-0.09923168 -0.021222522 0.021270826 0.0069448464 -0.029208222 0.06274703 0.042643826 -0.12715395
0.034068316 -0.043681376 -0.22193547 -0.119018085 -0.30292794 0.036865715 -0.15070935 0.031490836
0.14706594 -0.06697117 -0.06312667 0.17014341 0.06596733 0.14809057 -0.1140115 -0.013911633
0.113079526 -0.10710213 -0.04680346 0.24612741 0.16422549 0.020323997 -0.026788633 0.23368849
0.106410295 0.019773457 0.14287622 -0.14086738 0.0050731045 0.023032438 -0.07472169 -0.19359711
-0.28640306 0.22537285 -0.24088311 -0.066845484 0.009955737 0.07264177 0.15366068 -0.17456125
0.11925663 -0.13219264 0.1017961 0.018818883 -0.07917527 -0.10879695 -0.041203063 -0.30519116
0.14317328 -0.081149824 -0.11467353 -0.3574622 0.15989026 -0.06663056 -0.12597954 0.07782006
-0.15125069 0.16361609 0.0067867814 -0.12980023 0.08553137 0.1347623 -0.097140305 0.1266604
0.033533826 -0.20063497 0.07000899 0.0062380494 0.07555618 0.02965111 0.023502018 -0.042133577
-0.0047278423 0.10208938 0.12067993 -0.061703984 -0.02017172 -0.14644517 0.20809218 -0.0620286
0.16816543 -0.042820726 0.057382587 0.044368856 -0.17267334 0.06954828 -0.23118313 0.010578927
-0.09225946 -0.12211952 -0.16605479 0.011776512 -0.18681255 0.20303649 0.10628884 0.14746088
0.117118195 0.098671205 -0.13668379 -0.055104446 0.06975678 -0.0004529268 0.11616769 -0.0606796
0.102257445 0.11780589 0.10546246 0.010556627 0.1420579 -0.06941267 -0.0375799 0.013981654
-0.06732012 0.19333921 -0.20729348 0.017432677 0.15966842 -0.30586606 -0.1429363 -0.24631934
-0.024591083 -0.003802065 0.14504924 0.15789123 0.17282772 0.08336339 -0.0018522161 0.029746035
-0.023006683 0.017717173 0.019926276 -0.15701808 0.055060256 0.14734489 0.04677118 0.039331373
0.03776837 -0.076001376 -0.11796217 0.009751477 -0.024305034 0.07786727 0.19648348 -0.123537704
-0.11097592 0.15368032 0.14341296 0.23560318 0.018579984 0.20674299 0.076267555 0.32927585
0.09916399 -0.026192825 0.21542849 0.06746379 0.10449264 -0.036552034 0.02271242 0.0054451674
-0.11805696 0.025190983 0.14390609 -0.18654306 0.14909881 0.024662517 0.13719112 -0.11224944
0.024285048 -0.05642032 0.0064157853 0.1480899 0.10842902 0.1401803 -0.22331448 -0.012517675
0.10975095 -0.114264235 -0.053831775 0.010930696 0.10447259 -0.14397234 -0.113830335 -0.06178274
-0.06748891 -0.03170528 0.027428884 -0.06945082 0.21854413 0.10197836 -0.083605826 -0.039454054

fc_out.bias f4 [9]
00000000: cd30 7a3d ef1a 943d 0c7f b6bd 7bf9 643d
00000010: e49e 90bd 6157 873d 7908 90bd b691 483d
00000020: 8f37 f83b
0.061081696 0.072317 -0.08910951 0.055901986 -0.07061556 0.06608463 -0.07032866 0.048967086
0.0075749825
